<?xml version="1.0" ?>
<net name="torch-jit-export" version="11">
	<layers>
		<layer id="125" name="input.1" type="Parameter" version="opset1">
			<data element_type="f32" shape="1,1,224,224"/>
			<rt_info>
				<attribute name="fused_names" value="input.1" version="0"/>
			</rt_info>
			<output>
				<port id="0" names="input.1" precision="FP32">
					<dim>1</dim>
					<dim>1</dim>
					<dim>224</dim>
					<dim>224</dim>
					<rt_info/>
				</port>
			</output>
		</layer>
		<layer id="0" name="2819282316297" type="Const" version="opset1">
			<data element_type="f32" offset="0" shape="" size="4"/>
			<output>
				<port id="0" precision="FP32"/>
			</output>
		</layer>
		<layer id="1" name="2820282414467" type="Const" version="opset1">
			<data element_type="f32" offset="4" shape="" size="4"/>
			<output>
				<port id="0" precision="FP32"/>
			</output>
		</layer>
		<layer id="2" name="2821282516273" type="Const" version="opset1">
			<data element_type="f32" offset="0" shape="" size="4"/>
			<output>
				<port id="0" precision="FP32"/>
			</output>
		</layer>
		<layer id="3" name="2822282615664" type="Const" version="opset1">
			<data element_type="f32" offset="4" shape="" size="4"/>
			<output>
				<port id="0" precision="FP32"/>
			</output>
		</layer>
		<layer id="4" name="Constant_316996214971" type="Const" version="opset1">
			<data element_type="i64" offset="8" shape="1" size="8"/>
			<rt_info>
				<attribute name="fused_names" value="Constant_3169" version="0"/>
			</rt_info>
			<output>
				<port id="0" precision="I64">
					<dim>1</dim>
				</port>
			</output>
		</layer>
		<layer id="5" name="2749275316264" type="Const" version="opset1">
			<data element_type="f32" offset="16" shape="" size="4"/>
			<output>
				<port id="0" precision="FP32"/>
			</output>
		</layer>
		<layer id="6" name="2750275415382" type="Const" version="opset1">
			<data element_type="f32" offset="20" shape="" size="4"/>
			<output>
				<port id="0" precision="FP32"/>
			</output>
		</layer>
		<layer id="7" name="2751275514800" type="Const" version="opset1">
			<data element_type="f32" offset="16" shape="" size="4"/>
			<output>
				<port id="0" precision="FP32"/>
			</output>
		</layer>
		<layer id="8" name="2752275614632" type="Const" version="opset1">
			<data element_type="f32" offset="20" shape="" size="4"/>
			<output>
				<port id="0" precision="FP32"/>
			</output>
		</layer>
		<layer id="9" name="2089209315718" type="Const" version="opset1">
			<data element_type="f32" offset="24" shape="" size="4"/>
			<output>
				<port id="0" precision="FP32"/>
			</output>
		</layer>
		<layer id="10" name="2090209415268" type="Const" version="opset1">
			<data element_type="f32" offset="28" shape="" size="4"/>
			<output>
				<port id="0" precision="FP32"/>
			</output>
		</layer>
		<layer id="11" name="2091209515742" type="Const" version="opset1">
			<data element_type="f32" offset="24" shape="" size="4"/>
			<output>
				<port id="0" precision="FP32"/>
			</output>
		</layer>
		<layer id="12" name="2092209616060" type="Const" version="opset1">
			<data element_type="f32" offset="28" shape="" size="4"/>
			<output>
				<port id="0" precision="FP32"/>
			</output>
		</layer>
		<layer id="13" name="1939194315466" type="Const" version="opset1">
			<data element_type="f32" offset="32" shape="" size="4"/>
			<output>
				<port id="0" precision="FP32"/>
			</output>
		</layer>
		<layer id="14" name="1940194416039" type="Const" version="opset1">
			<data element_type="f32" offset="36" shape="" size="4"/>
			<output>
				<port id="0" precision="FP32"/>
			</output>
		</layer>
		<layer id="15" name="1941194516159" type="Const" version="opset1">
			<data element_type="f32" offset="32" shape="" size="4"/>
			<output>
				<port id="0" precision="FP32"/>
			</output>
		</layer>
		<layer id="16" name="1942194616093" type="Const" version="opset1">
			<data element_type="f32" offset="36" shape="" size="4"/>
			<output>
				<port id="0" precision="FP32"/>
			</output>
		</layer>
		<layer id="17" name="3209321316000" type="Const" version="opset1">
			<data element_type="f32" offset="40" shape="" size="4"/>
			<output>
				<port id="0" precision="FP32"/>
			</output>
		</layer>
		<layer id="18" name="3210321414962" type="Const" version="opset1">
			<data element_type="f32" offset="44" shape="" size="4"/>
			<output>
				<port id="0" precision="FP32"/>
			</output>
		</layer>
		<layer id="19" name="3211321514395" type="Const" version="opset1">
			<data element_type="f32" offset="40" shape="" size="4"/>
			<output>
				<port id="0" precision="FP32"/>
			</output>
		</layer>
		<layer id="20" name="3212321616117" type="Const" version="opset1">
			<data element_type="f32" offset="44" shape="" size="4"/>
			<output>
				<port id="0" precision="FP32"/>
			</output>
		</layer>
		<layer id="21" name="2069207314614" type="Const" version="opset1">
			<data element_type="f32" offset="48" shape="" size="4"/>
			<output>
				<port id="0" precision="FP32"/>
			</output>
		</layer>
		<layer id="22" name="2070207414989" type="Const" version="opset1">
			<data element_type="f32" offset="52" shape="" size="4"/>
			<output>
				<port id="0" precision="FP32"/>
			</output>
		</layer>
		<layer id="23" name="2071207516222" type="Const" version="opset1">
			<data element_type="f32" offset="48" shape="" size="4"/>
			<output>
				<port id="0" precision="FP32"/>
			</output>
		</layer>
		<layer id="24" name="2072207615976" type="Const" version="opset1">
			<data element_type="f32" offset="52" shape="" size="4"/>
			<output>
				<port id="0" precision="FP32"/>
			</output>
		</layer>
		<layer id="25" name="3389339315361" type="Const" version="opset1">
			<data element_type="f32" offset="56" shape="" size="4"/>
			<output>
				<port id="0" precision="FP32"/>
			</output>
		</layer>
		<layer id="26" name="3390339416210" type="Const" version="opset1">
			<data element_type="f32" offset="60" shape="" size="4"/>
			<output>
				<port id="0" precision="FP32"/>
			</output>
		</layer>
		<layer id="27" name="3391339514629" type="Const" version="opset1">
			<data element_type="f32" offset="56" shape="" size="4"/>
			<output>
				<port id="0" precision="FP32"/>
			</output>
		</layer>
		<layer id="28" name="3392339615592" type="Const" version="opset1">
			<data element_type="f32" offset="60" shape="" size="4"/>
			<output>
				<port id="0" precision="FP32"/>
			</output>
		</layer>
		<layer id="29" name="Constant_707948814587" type="Const" version="opset1">
			<data element_type="f32" offset="64" shape="1,384,1,1" size="1536"/>
			<output>
				<port id="0" precision="FP32">
					<dim>1</dim>
					<dim>384</dim>
					<dim>1</dim>
					<dim>1</dim>
				</port>
			</output>
		</layer>
		<layer id="30" name="Constant_265087915319" type="Const" version="opset1">
			<data element_type="i64" offset="1600" shape="1" size="8"/>
			<rt_info>
				<attribute name="fused_names" value="Constant_2650" version="0"/>
			</rt_info>
			<output>
				<port id="0" precision="I64">
					<dim>1</dim>
				</port>
			</output>
		</layer>
		<layer id="31" name="2489249314380" type="Const" version="opset1">
			<data element_type="f32" offset="1608" shape="" size="4"/>
			<output>
				<port id="0" precision="FP32"/>
			</output>
		</layer>
		<layer id="32" name="2490249416387" type="Const" version="opset1">
			<data element_type="f32" offset="1612" shape="" size="4"/>
			<output>
				<port id="0" precision="FP32"/>
			</output>
		</layer>
		<layer id="33" name="2491249515262" type="Const" version="opset1">
			<data element_type="f32" offset="1608" shape="" size="4"/>
			<output>
				<port id="0" precision="FP32"/>
			</output>
		</layer>
		<layer id="34" name="2492249615040" type="Const" version="opset1">
			<data element_type="f32" offset="1612" shape="" size="4"/>
			<output>
				<port id="0" precision="FP32"/>
			</output>
		</layer>
		<layer id="35" name="2589259315079" type="Const" version="opset1">
			<data element_type="f32" offset="1616" shape="" size="4"/>
			<output>
				<port id="0" precision="FP32"/>
			</output>
		</layer>
		<layer id="36" name="2590259414746" type="Const" version="opset1">
			<data element_type="f32" offset="1620" shape="" size="4"/>
			<output>
				<port id="0" precision="FP32"/>
			</output>
		</layer>
		<layer id="37" name="2591259515589" type="Const" version="opset1">
			<data element_type="f32" offset="1616" shape="" size="4"/>
			<output>
				<port id="0" precision="FP32"/>
			</output>
		</layer>
		<layer id="38" name="2592259614992" type="Const" version="opset1">
			<data element_type="f32" offset="1620" shape="" size="4"/>
			<output>
				<port id="0" precision="FP32"/>
			</output>
		</layer>
		<layer id="39" name="3489349315586" type="Const" version="opset1">
			<data element_type="f32" offset="1624" shape="" size="4"/>
			<output>
				<port id="0" precision="FP32"/>
			</output>
		</layer>
		<layer id="40" name="3490349415055" type="Const" version="opset1">
			<data element_type="f32" offset="1628" shape="" size="4"/>
			<output>
				<port id="0" precision="FP32"/>
			</output>
		</layer>
		<layer id="41" name="3491349516300" type="Const" version="opset1">
			<data element_type="f32" offset="1624" shape="" size="4"/>
			<output>
				<port id="0" precision="FP32"/>
			</output>
		</layer>
		<layer id="42" name="3492349616396" type="Const" version="opset1">
			<data element_type="f32" offset="1628" shape="" size="4"/>
			<output>
				<port id="0" precision="FP32"/>
			</output>
		</layer>
		<layer id="43" name="2899290315067" type="Const" version="opset1">
			<data element_type="f32" offset="1632" shape="" size="4"/>
			<output>
				<port id="0" precision="FP32"/>
			</output>
		</layer>
		<layer id="44" name="2900290414875" type="Const" version="opset1">
			<data element_type="f32" offset="1636" shape="" size="4"/>
			<output>
				<port id="0" precision="FP32"/>
			</output>
		</layer>
		<layer id="45" name="2901290515214" type="Const" version="opset1">
			<data element_type="f32" offset="1632" shape="" size="4"/>
			<output>
				<port id="0" precision="FP32"/>
			</output>
		</layer>
		<layer id="46" name="2902290614833" type="Const" version="opset1">
			<data element_type="f32" offset="1636" shape="" size="4"/>
			<output>
				<port id="0" precision="FP32"/>
			</output>
		</layer>
		<layer id="47" name="2349235315769" type="Const" version="opset1">
			<data element_type="f32" offset="1640" shape="" size="4"/>
			<output>
				<port id="0" precision="FP32"/>
			</output>
		</layer>
		<layer id="48" name="2350235416279" type="Const" version="opset1">
			<data element_type="f32" offset="1644" shape="" size="4"/>
			<output>
				<port id="0" precision="FP32"/>
			</output>
		</layer>
		<layer id="49" name="2351235514680" type="Const" version="opset1">
			<data element_type="f32" offset="1640" shape="" size="4"/>
			<output>
				<port id="0" precision="FP32"/>
			</output>
		</layer>
		<layer id="50" name="2352235614845" type="Const" version="opset1">
			<data element_type="f32" offset="1644" shape="" size="4"/>
			<output>
				<port id="0" precision="FP32"/>
			</output>
		</layer>
		<layer id="51" name="2689269316456" type="Const" version="opset1">
			<data element_type="f32" offset="1648" shape="" size="4"/>
			<output>
				<port id="0" precision="FP32"/>
			</output>
		</layer>
		<layer id="52" name="2690269415844" type="Const" version="opset1">
			<data element_type="f32" offset="1652" shape="" size="4"/>
			<output>
				<port id="0" precision="FP32"/>
			</output>
		</layer>
		<layer id="53" name="2691269516141" type="Const" version="opset1">
			<data element_type="f32" offset="1648" shape="" size="4"/>
			<output>
				<port id="0" precision="FP32"/>
			</output>
		</layer>
		<layer id="54" name="2692269614869" type="Const" version="opset1">
			<data element_type="f32" offset="1652" shape="" size="4"/>
			<output>
				<port id="0" precision="FP32"/>
			</output>
		</layer>
		<layer id="55" name="2219222314860" type="Const" version="opset1">
			<data element_type="f32" offset="1656" shape="" size="4"/>
			<output>
				<port id="0" precision="FP32"/>
			</output>
		</layer>
		<layer id="56" name="2220222415001" type="Const" version="opset1">
			<data element_type="f32" offset="1660" shape="" size="4"/>
			<output>
				<port id="0" precision="FP32"/>
			</output>
		</layer>
		<layer id="57" name="2221222516075" type="Const" version="opset1">
			<data element_type="f32" offset="1656" shape="" size="4"/>
			<output>
				<port id="0" precision="FP32"/>
			</output>
		</layer>
		<layer id="58" name="2222222616069" type="Const" version="opset1">
			<data element_type="f32" offset="1660" shape="" size="4"/>
			<output>
				<port id="0" precision="FP32"/>
			</output>
		</layer>
		<layer id="59" name="3049305316246" type="Const" version="opset1">
			<data element_type="f32" offset="1664" shape="" size="4"/>
			<output>
				<port id="0" precision="FP32"/>
			</output>
		</layer>
		<layer id="60" name="3050305414911" type="Const" version="opset1">
			<data element_type="f32" offset="1668" shape="" size="4"/>
			<output>
				<port id="0" precision="FP32"/>
			</output>
		</layer>
		<layer id="61" name="3051305514356" type="Const" version="opset1">
			<data element_type="f32" offset="1664" shape="" size="4"/>
			<output>
				<port id="0" precision="FP32"/>
			</output>
		</layer>
		<layer id="62" name="3052305615301" type="Const" version="opset1">
			<data element_type="f32" offset="1668" shape="" size="4"/>
			<output>
				<port id="0" precision="FP32"/>
			</output>
		</layer>
		<layer id="63" name="1869187314944" type="Const" version="opset1">
			<data element_type="f32" offset="1672" shape="" size="4"/>
			<output>
				<port id="0" precision="FP32"/>
			</output>
		</layer>
		<layer id="64" name="1870187415148" type="Const" version="opset1">
			<data element_type="f32" offset="1676" shape="" size="4"/>
			<output>
				<port id="0" precision="FP32"/>
			</output>
		</layer>
		<layer id="65" name="1871187516078" type="Const" version="opset1">
			<data element_type="f32" offset="1672" shape="" size="4"/>
			<output>
				<port id="0" precision="FP32"/>
			</output>
		</layer>
		<layer id="66" name="1872187615739" type="Const" version="opset1">
			<data element_type="f32" offset="1676" shape="" size="4"/>
			<output>
				<port id="0" precision="FP32"/>
			</output>
		</layer>
		<layer id="67" name="2549255314728" type="Const" version="opset1">
			<data element_type="f32" offset="1680" shape="" size="4"/>
			<output>
				<port id="0" precision="FP32"/>
			</output>
		</layer>
		<layer id="68" name="2550255416198" type="Const" version="opset1">
			<data element_type="f32" offset="1684" shape="" size="4"/>
			<output>
				<port id="0" precision="FP32"/>
			</output>
		</layer>
		<layer id="69" name="2551255514734" type="Const" version="opset1">
			<data element_type="f32" offset="1680" shape="" size="4"/>
			<output>
				<port id="0" precision="FP32"/>
			</output>
		</layer>
		<layer id="70" name="2552255615112" type="Const" version="opset1">
			<data element_type="f32" offset="1684" shape="" size="4"/>
			<output>
				<port id="0" precision="FP32"/>
			</output>
		</layer>
		<layer id="71" name="3549355315238" type="Const" version="opset1">
			<data element_type="f32" offset="1688" shape="" size="4"/>
			<output>
				<port id="0" precision="FP32"/>
			</output>
		</layer>
		<layer id="72" name="3550355415346" type="Const" version="opset1">
			<data element_type="f32" offset="1692" shape="" size="4"/>
			<output>
				<port id="0" precision="FP32"/>
			</output>
		</layer>
		<layer id="73" name="3551355515127" type="Const" version="opset1">
			<data element_type="f32" offset="1688" shape="" size="4"/>
			<output>
				<port id="0" precision="FP32"/>
			</output>
		</layer>
		<layer id="74" name="3552355615643" type="Const" version="opset1">
			<data element_type="f32" offset="1692" shape="" size="4"/>
			<output>
				<port id="0" precision="FP32"/>
			</output>
		</layer>
		<layer id="75" name="Constant_704148915790" type="Const" version="opset1">
			<data element_type="f32" offset="1696" shape="1,192,1,1" size="768"/>
			<output>
				<port id="0" precision="FP32">
					<dim>1</dim>
					<dim>192</dim>
					<dim>1</dim>
					<dim>1</dim>
				</port>
			</output>
		</layer>
		<layer id="76" name="Constant_122165414821" type="Const" version="opset1">
			<data element_type="i64" offset="1600" shape="1" size="8"/>
			<rt_info>
				<attribute name="fused_names" value="Constant_1221" version="0"/>
			</rt_info>
			<output>
				<port id="0" precision="I64">
					<dim>1</dim>
				</port>
			</output>
		</layer>
		<layer id="77" name="1999200315373" type="Const" version="opset1">
			<data element_type="f32" offset="2464" shape="" size="4"/>
			<output>
				<port id="0" precision="FP32"/>
			</output>
		</layer>
		<layer id="78" name="2000200416363" type="Const" version="opset1">
			<data element_type="f32" offset="2468" shape="" size="4"/>
			<output>
				<port id="0" precision="FP32"/>
			</output>
		</layer>
		<layer id="79" name="2001200514410" type="Const" version="opset1">
			<data element_type="f32" offset="2464" shape="" size="4"/>
			<output>
				<port id="0" precision="FP32"/>
			</output>
		</layer>
		<layer id="80" name="2002200614482" type="Const" version="opset1">
			<data element_type="f32" offset="2468" shape="" size="4"/>
			<output>
				<port id="0" precision="FP32"/>
			</output>
		</layer>
		<layer id="81" name="2039204315328" type="Const" version="opset1">
			<data element_type="f32" offset="2472" shape="" size="4"/>
			<output>
				<port id="0" precision="FP32"/>
			</output>
		</layer>
		<layer id="82" name="2040204414419" type="Const" version="opset1">
			<data element_type="f32" offset="2476" shape="" size="4"/>
			<output>
				<port id="0" precision="FP32"/>
			</output>
		</layer>
		<layer id="83" name="2041204514572" type="Const" version="opset1">
			<data element_type="f32" offset="2472" shape="" size="4"/>
			<output>
				<port id="0" precision="FP32"/>
			</output>
		</layer>
		<layer id="84" name="2042204615535" type="Const" version="opset1">
			<data element_type="f32" offset="2476" shape="" size="4"/>
			<output>
				<port id="0" precision="FP32"/>
			</output>
		</layer>
		<layer id="85" name="2409241316033" type="Const" version="opset1">
			<data element_type="f32" offset="2480" shape="" size="4"/>
			<output>
				<port id="0" precision="FP32"/>
			</output>
		</layer>
		<layer id="86" name="2410241414314" type="Const" version="opset1">
			<data element_type="f32" offset="2484" shape="" size="4"/>
			<output>
				<port id="0" precision="FP32"/>
			</output>
		</layer>
		<layer id="87" name="2411241514365" type="Const" version="opset1">
			<data element_type="f32" offset="2480" shape="" size="4"/>
			<output>
				<port id="0" precision="FP32"/>
			</output>
		</layer>
		<layer id="88" name="2412241615376" type="Const" version="opset1">
			<data element_type="f32" offset="2484" shape="" size="4"/>
			<output>
				<port id="0" precision="FP32"/>
			</output>
		</layer>
		<layer id="89" name="2919292314662" type="Const" version="opset1">
			<data element_type="f32" offset="2488" shape="" size="4"/>
			<output>
				<port id="0" precision="FP32"/>
			</output>
		</layer>
		<layer id="90" name="2920292416003" type="Const" version="opset1">
			<data element_type="f32" offset="2492" shape="" size="4"/>
			<output>
				<port id="0" precision="FP32"/>
			</output>
		</layer>
		<layer id="91" name="2921292515481" type="Const" version="opset1">
			<data element_type="f32" offset="2488" shape="" size="4"/>
			<output>
				<port id="0" precision="FP32"/>
			</output>
		</layer>
		<layer id="92" name="2922292616420" type="Const" version="opset1">
			<data element_type="f32" offset="2492" shape="" size="4"/>
			<output>
				<port id="0" precision="FP32"/>
			</output>
		</layer>
		<layer id="93" name="2279228315484" type="Const" version="opset1">
			<data element_type="f32" offset="2496" shape="" size="4"/>
			<output>
				<port id="0" precision="FP32"/>
			</output>
		</layer>
		<layer id="94" name="2280228414782" type="Const" version="opset1">
			<data element_type="f32" offset="2500" shape="" size="4"/>
			<output>
				<port id="0" precision="FP32"/>
			</output>
		</layer>
		<layer id="95" name="2281228516390" type="Const" version="opset1">
			<data element_type="f32" offset="2496" shape="" size="4"/>
			<output>
				<port id="0" precision="FP32"/>
			</output>
		</layer>
		<layer id="96" name="2282228615409" type="Const" version="opset1">
			<data element_type="f32" offset="2500" shape="" size="4"/>
			<output>
				<port id="0" precision="FP32"/>
			</output>
		</layer>
		<layer id="97" name="Constant_702749014932" type="Const" version="opset1">
			<data element_type="f32" offset="2504" shape="1,96,1,1" size="384"/>
			<output>
				<port id="0" precision="FP32">
					<dim>1</dim>
					<dim>96</dim>
					<dim>1</dim>
					<dim>1</dim>
				</port>
			</output>
		</layer>
		<layer id="98" name="Constant_70457314848" type="Const" version="opset1">
			<data element_type="i64" offset="1600" shape="1" size="8"/>
			<rt_info>
				<attribute name="fused_names" value="Constant_704" version="0"/>
			</rt_info>
			<output>
				<port id="0" precision="I64">
					<dim>1</dim>
				</port>
			</output>
		</layer>
		<layer id="99" name="2449245314794" type="Const" version="opset1">
			<data element_type="f32" offset="2888" shape="" size="4"/>
			<output>
				<port id="0" precision="FP32"/>
			</output>
		</layer>
		<layer id="100" name="2450245414413" type="Const" version="opset1">
			<data element_type="f32" offset="2892" shape="" size="4"/>
			<output>
				<port id="0" precision="FP32"/>
			</output>
		</layer>
		<layer id="101" name="2451245514671" type="Const" version="opset1">
			<data element_type="f32" offset="2888" shape="" size="4"/>
			<output>
				<port id="0" precision="FP32"/>
			</output>
		</layer>
		<layer id="102" name="2452245615103" type="Const" version="opset1">
			<data element_type="f32" offset="2892" shape="" size="4"/>
			<output>
				<port id="0" precision="FP32"/>
			</output>
		</layer>
		<layer id="103" name="3129313314335" type="Const" version="opset1">
			<data element_type="f32" offset="2896" shape="" size="4"/>
			<output>
				<port id="0" precision="FP32"/>
			</output>
		</layer>
		<layer id="104" name="3130313415256" type="Const" version="opset1">
			<data element_type="f32" offset="2900" shape="" size="4"/>
			<output>
				<port id="0" precision="FP32"/>
			</output>
		</layer>
		<layer id="105" name="3131313515469" type="Const" version="opset1">
			<data element_type="f32" offset="2896" shape="" size="4"/>
			<output>
				<port id="0" precision="FP32"/>
			</output>
		</layer>
		<layer id="106" name="3132313616147" type="Const" version="opset1">
			<data element_type="f32" offset="2900" shape="" size="4"/>
			<output>
				<port id="0" precision="FP32"/>
			</output>
		</layer>
		<layer id="107" name="2469247315706" type="Const" version="opset1">
			<data element_type="f32" offset="2904" shape="" size="4"/>
			<output>
				<port id="0" precision="FP32"/>
			</output>
		</layer>
		<layer id="108" name="2470247415259" type="Const" version="opset1">
			<data element_type="f32" offset="2908" shape="" size="4"/>
			<output>
				<port id="0" precision="FP32"/>
			</output>
		</layer>
		<layer id="109" name="2471247515463" type="Const" version="opset1">
			<data element_type="f32" offset="2904" shape="" size="4"/>
			<output>
				<port id="0" precision="FP32"/>
			</output>
		</layer>
		<layer id="110" name="2472247614533" type="Const" version="opset1">
			<data element_type="f32" offset="2908" shape="" size="4"/>
			<output>
				<port id="0" precision="FP32"/>
			</output>
		</layer>
		<layer id="111" name="3449345316513" type="Const" version="opset1">
			<data element_type="f32" offset="2912" shape="" size="4"/>
			<output>
				<port id="0" precision="FP32"/>
			</output>
		</layer>
		<layer id="112" name="3450345415541" type="Const" version="opset1">
			<data element_type="f32" offset="2916" shape="" size="4"/>
			<output>
				<port id="0" precision="FP32"/>
			</output>
		</layer>
		<layer id="113" name="3451345516510" type="Const" version="opset1">
			<data element_type="f32" offset="2912" shape="" size="4"/>
			<output>
				<port id="0" precision="FP32"/>
			</output>
		</layer>
		<layer id="114" name="3452345615673" type="Const" version="opset1">
			<data element_type="f32" offset="2916" shape="" size="4"/>
			<output>
				<port id="0" precision="FP32"/>
			</output>
		</layer>
		<layer id="115" name="Constant_701349114743" type="Const" version="opset1">
			<data element_type="f32" offset="2920" shape="1,96,1,1" size="384"/>
			<output>
				<port id="0" precision="FP32">
					<dim>1</dim>
					<dim>96</dim>
					<dim>1</dim>
					<dim>1</dim>
				</port>
			</output>
		</layer>
		<layer id="116" name="Constant_23549615991" type="Const" version="opset1">
			<data element_type="i64" offset="1600" shape="1" size="8"/>
			<rt_info>
				<attribute name="fused_names" value="Constant_235" version="0"/>
			</rt_info>
			<output>
				<port id="0" precision="I64">
					<dim>1</dim>
				</port>
			</output>
		</layer>
		<layer id="117" name="3569357315331" type="Const" version="opset1">
			<data element_type="f32" offset="3304" shape="" size="4"/>
			<output>
				<port id="0" precision="FP32"/>
			</output>
		</layer>
		<layer id="118" name="3570357415406" type="Const" version="opset1">
			<data element_type="f32" offset="3308" shape="" size="4"/>
			<output>
				<port id="0" precision="FP32"/>
			</output>
		</layer>
		<layer id="119" name="3571357516048" type="Const" version="opset1">
			<data element_type="f32" offset="3304" shape="" size="4"/>
			<output>
				<port id="0" precision="FP32"/>
			</output>
		</layer>
		<layer id="120" name="3572357614938" type="Const" version="opset1">
			<data element_type="f32" offset="3308" shape="" size="4"/>
			<output>
				<port id="0" precision="FP32"/>
			</output>
		</layer>
		<layer id="121" name="2959296315877" type="Const" version="opset1">
			<data element_type="f32" offset="3312" shape="" size="4"/>
			<output>
				<port id="0" precision="FP32"/>
			</output>
		</layer>
		<layer id="122" name="2960296415964" type="Const" version="opset1">
			<data element_type="f32" offset="3316" shape="" size="4"/>
			<output>
				<port id="0" precision="FP32"/>
			</output>
		</layer>
		<layer id="123" name="2961296515199" type="Const" version="opset1">
			<data element_type="f32" offset="3312" shape="" size="4"/>
			<output>
				<port id="0" precision="FP32"/>
			</output>
		</layer>
		<layer id="124" name="2962296615070" type="Const" version="opset1">
			<data element_type="f32" offset="3316" shape="" size="4"/>
			<output>
				<port id="0" precision="FP32"/>
			</output>
		</layer>
		<layer id="126" name="Conv_0/WithoutBiases/fq_input_0" type="FakeQuantize" version="opset1">
			<data auto_broadcast="numpy" levels="256"/>
			<input>
				<port id="0">
					<dim>1</dim>
					<dim>1</dim>
					<dim>224</dim>
					<dim>224</dim>
				</port>
				<port id="1"/>
				<port id="2"/>
				<port id="3"/>
				<port id="4"/>
			</input>
			<output>
				<port id="5" precision="FP32">
					<dim>1</dim>
					<dim>1</dim>
					<dim>224</dim>
					<dim>224</dim>
				</port>
			</output>
		</layer>
		<layer id="127" name="downsample_layers.0.0.weight4928476/quantized1090314908" type="Const" version="opset1">
			<data element_type="i8" offset="3320" shape="96,1,4,4" size="1536"/>
			<output>
				<port id="0" precision="I8">
					<dim>96</dim>
					<dim>1</dim>
					<dim>4</dim>
					<dim>4</dim>
				</port>
			</output>
		</layer>
		<layer id="128" name="downsample_layers.0.0.weight4928476/quantized/to_f32" type="Convert" version="opset1">
			<data destination_type="f32"/>
			<input>
				<port id="0">
					<dim>96</dim>
					<dim>1</dim>
					<dim>4</dim>
					<dim>4</dim>
				</port>
			</input>
			<output>
				<port id="1" precision="FP32">
					<dim>96</dim>
					<dim>1</dim>
					<dim>4</dim>
					<dim>4</dim>
				</port>
			</output>
		</layer>
		<layer id="129" name="Conv_0/WithoutBiases/fq_weights_1/zero_point1092215163" type="Const" version="opset1">
			<data element_type="f32" offset="4856" shape="96,1,1,1" size="384"/>
			<output>
				<port id="0" precision="FP32">
					<dim>96</dim>
					<dim>1</dim>
					<dim>1</dim>
					<dim>1</dim>
				</port>
			</output>
		</layer>
		<layer id="130" name="Conv_0/WithoutBiases/fq_weights_1/minus_zp" type="Subtract" version="opset1">
			<data auto_broadcast="numpy"/>
			<input>
				<port id="0">
					<dim>96</dim>
					<dim>1</dim>
					<dim>4</dim>
					<dim>4</dim>
				</port>
				<port id="1">
					<dim>96</dim>
					<dim>1</dim>
					<dim>1</dim>
					<dim>1</dim>
				</port>
			</input>
			<output>
				<port id="2" precision="FP32">
					<dim>96</dim>
					<dim>1</dim>
					<dim>4</dim>
					<dim>4</dim>
				</port>
			</output>
		</layer>
		<layer id="131" name="Conv_0/WithoutBiases/fq_weights_1/scale1091115454" type="Const" version="opset1">
			<data element_type="f32" offset="5240" shape="96,1,1,1" size="384"/>
			<output>
				<port id="0" precision="FP32">
					<dim>96</dim>
					<dim>1</dim>
					<dim>1</dim>
					<dim>1</dim>
				</port>
			</output>
		</layer>
		<layer id="132" name="Conv_0/WithoutBiases/fq_weights_1/mulpiply_by_scale" type="Multiply" version="opset1">
			<data auto_broadcast="numpy"/>
			<input>
				<port id="0">
					<dim>96</dim>
					<dim>1</dim>
					<dim>4</dim>
					<dim>4</dim>
				</port>
				<port id="1">
					<dim>96</dim>
					<dim>1</dim>
					<dim>1</dim>
					<dim>1</dim>
				</port>
			</input>
			<output>
				<port id="2" precision="FP32">
					<dim>96</dim>
					<dim>1</dim>
					<dim>4</dim>
					<dim>4</dim>
				</port>
			</output>
		</layer>
		<layer id="133" name="Conv_0/WithoutBiases" type="Convolution" version="opset1">
			<data auto_pad="explicit" dilations="1,1" pads_begin="0,0" pads_end="0,0" strides="4,4"/>
			<rt_info>
				<attribute name="fused_names" value="Conv_0/WithoutBiases" version="0"/>
			</rt_info>
			<input>
				<port id="0">
					<dim>1</dim>
					<dim>1</dim>
					<dim>224</dim>
					<dim>224</dim>
				</port>
				<port id="1">
					<dim>96</dim>
					<dim>1</dim>
					<dim>4</dim>
					<dim>4</dim>
				</port>
			</input>
			<output>
				<port id="2" precision="FP32">
					<dim>1</dim>
					<dim>96</dim>
					<dim>56</dim>
					<dim>56</dim>
				</port>
			</output>
		</layer>
		<layer id="134" name="Reshape_20749415823" type="Const" version="opset1">
			<data element_type="f32" offset="5624" shape="1,96,1,1" size="384"/>
			<output>
				<port id="0" precision="FP32">
					<dim>1</dim>
					<dim>96</dim>
					<dim>1</dim>
					<dim>1</dim>
				</port>
			</output>
		</layer>
		<layer id="135" name="Conv_0" type="Add" version="opset1">
			<data auto_broadcast="numpy"/>
			<rt_info>
				<attribute name="fused_names" value="Concat_206, Conv_0, Reshape_207" version="0"/>
			</rt_info>
			<input>
				<port id="0">
					<dim>1</dim>
					<dim>96</dim>
					<dim>56</dim>
					<dim>56</dim>
				</port>
				<port id="1">
					<dim>1</dim>
					<dim>96</dim>
					<dim>1</dim>
					<dim>1</dim>
				</port>
			</input>
			<output>
				<port id="2" names="183" precision="FP32">
					<dim>1</dim>
					<dim>96</dim>
					<dim>56</dim>
					<dim>56</dim>
				</port>
			</output>
		</layer>
		<layer id="136" name="Div_9/fq_input_0" type="FakeQuantize" version="opset1">
			<data auto_broadcast="numpy" levels="256"/>
			<input>
				<port id="0">
					<dim>1</dim>
					<dim>96</dim>
					<dim>56</dim>
					<dim>56</dim>
				</port>
				<port id="1"/>
				<port id="2"/>
				<port id="3"/>
				<port id="4"/>
			</input>
			<output>
				<port id="5" precision="FP32">
					<dim>1</dim>
					<dim>96</dim>
					<dim>56</dim>
					<dim>56</dim>
				</port>
			</output>
		</layer>
		<layer id="137" name="Div_9" type="MVN" version="opset6">
			<data eps="9.999999974752427e-07" eps_mode="INSIDE_SQRT" normalize_variance="true"/>
			<rt_info>
				<attribute name="fused_names" value="Add_7, Div_9, Pow_3, ReduceMean_1, ReduceMean_4, Sqrt_8, Sub_2" version="0"/>
			</rt_info>
			<input>
				<port id="0">
					<dim>1</dim>
					<dim>96</dim>
					<dim>56</dim>
					<dim>56</dim>
				</port>
				<port id="1">
					<dim>1</dim>
				</port>
			</input>
			<output>
				<port id="2" names="194" precision="FP32">
					<dim>1</dim>
					<dim>96</dim>
					<dim>56</dim>
					<dim>56</dim>
				</port>
			</output>
		</layer>
		<layer id="138" name="Mul_10" type="Multiply" version="opset1">
			<data auto_broadcast="numpy"/>
			<rt_info>
				<attribute name="fused_names" value="Mul_10" version="0"/>
			</rt_info>
			<input>
				<port id="0">
					<dim>1</dim>
					<dim>96</dim>
					<dim>1</dim>
					<dim>1</dim>
				</port>
				<port id="1">
					<dim>1</dim>
					<dim>96</dim>
					<dim>56</dim>
					<dim>56</dim>
				</port>
			</input>
			<output>
				<port id="2" names="197" precision="FP32">
					<dim>1</dim>
					<dim>96</dim>
					<dim>56</dim>
					<dim>56</dim>
				</port>
			</output>
		</layer>
		<layer id="139" name="Constant_701449914371" type="Const" version="opset1">
			<data element_type="f32" offset="6008" shape="1,96,1,1" size="384"/>
			<output>
				<port id="0" precision="FP32">
					<dim>1</dim>
					<dim>96</dim>
					<dim>1</dim>
					<dim>1</dim>
				</port>
			</output>
		</layer>
		<layer id="140" name="Add_11" type="Add" version="opset1">
			<data auto_broadcast="numpy"/>
			<rt_info>
				<attribute name="fused_names" value="Add_11" version="0"/>
			</rt_info>
			<input>
				<port id="0">
					<dim>1</dim>
					<dim>96</dim>
					<dim>56</dim>
					<dim>56</dim>
				</port>
				<port id="1">
					<dim>1</dim>
					<dim>96</dim>
					<dim>1</dim>
					<dim>1</dim>
				</port>
			</input>
			<output>
				<port id="2" names="200" precision="FP32">
					<dim>1</dim>
					<dim>96</dim>
					<dim>56</dim>
					<dim>56</dim>
				</port>
			</output>
		</layer>
		<layer id="141" name="Add_39/fq_input_0" type="FakeQuantize" version="opset1">
			<data auto_broadcast="numpy" levels="256"/>
			<input>
				<port id="0">
					<dim>1</dim>
					<dim>96</dim>
					<dim>56</dim>
					<dim>56</dim>
				</port>
				<port id="1"/>
				<port id="2"/>
				<port id="3"/>
				<port id="4"/>
			</input>
			<output>
				<port id="5" precision="FP32">
					<dim>1</dim>
					<dim>96</dim>
					<dim>56</dim>
					<dim>56</dim>
				</port>
			</output>
		</layer>
		<layer id="142" name="4675467915967" type="Const" version="opset1">
			<data element_type="f32" offset="6392" shape="" size="4"/>
			<output>
				<port id="0" precision="FP32"/>
			</output>
		</layer>
		<layer id="143" name="4676468016009" type="Const" version="opset1">
			<data element_type="f32" offset="6396" shape="" size="4"/>
			<output>
				<port id="0" precision="FP32"/>
			</output>
		</layer>
		<layer id="144" name="4677468115004" type="Const" version="opset1">
			<data element_type="f32" offset="6392" shape="" size="4"/>
			<output>
				<port id="0" precision="FP32"/>
			</output>
		</layer>
		<layer id="145" name="4678468214569" type="Const" version="opset1">
			<data element_type="f32" offset="6396" shape="" size="4"/>
			<output>
				<port id="0" precision="FP32"/>
			</output>
		</layer>
		<layer id="146" name="3279328316294" type="Const" version="opset1">
			<data element_type="f32" offset="6400" shape="" size="4"/>
			<output>
				<port id="0" precision="FP32"/>
			</output>
		</layer>
		<layer id="147" name="3280328416318" type="Const" version="opset1">
			<data element_type="f32" offset="6404" shape="" size="4"/>
			<output>
				<port id="0" precision="FP32"/>
			</output>
		</layer>
		<layer id="148" name="3281328515814" type="Const" version="opset1">
			<data element_type="f32" offset="6400" shape="" size="4"/>
			<output>
				<port id="0" precision="FP32"/>
			</output>
		</layer>
		<layer id="149" name="3282328615130" type="Const" version="opset1">
			<data element_type="f32" offset="6404" shape="" size="4"/>
			<output>
				<port id="0" precision="FP32"/>
			</output>
		</layer>
		<layer id="150" name="2609261316408" type="Const" version="opset1">
			<data element_type="f32" offset="6408" shape="" size="4"/>
			<output>
				<port id="0" precision="FP32"/>
			</output>
		</layer>
		<layer id="151" name="2610261415505" type="Const" version="opset1">
			<data element_type="f32" offset="6412" shape="" size="4"/>
			<output>
				<port id="0" precision="FP32"/>
			</output>
		</layer>
		<layer id="152" name="2611261516330" type="Const" version="opset1">
			<data element_type="f32" offset="6408" shape="" size="4"/>
			<output>
				<port id="0" precision="FP32"/>
			</output>
		</layer>
		<layer id="153" name="2612261615388" type="Const" version="opset1">
			<data element_type="f32" offset="6412" shape="" size="4"/>
			<output>
				<port id="0" precision="FP32"/>
			</output>
		</layer>
		<layer id="154" name="Constant_37150714506" type="Const" version="opset1">
			<data element_type="i64" offset="8" shape="1" size="8"/>
			<rt_info>
				<attribute name="fused_names" value="Constant_371" version="0"/>
			</rt_info>
			<output>
				<port id="0" precision="I64">
					<dim>1</dim>
				</port>
			</output>
		</layer>
		<layer id="155" name="4805480915682" type="Const" version="opset1">
			<data element_type="f32" offset="6416" shape="" size="4"/>
			<output>
				<port id="0" precision="FP32"/>
			</output>
		</layer>
		<layer id="156" name="4806481015910" type="Const" version="opset1">
			<data element_type="f32" offset="6420" shape="" size="4"/>
			<output>
				<port id="0" precision="FP32"/>
			</output>
		</layer>
		<layer id="157" name="4807481114602" type="Const" version="opset1">
			<data element_type="f32" offset="6416" shape="" size="4"/>
			<output>
				<port id="0" precision="FP32"/>
			</output>
		</layer>
		<layer id="158" name="4808481215865" type="Const" version="opset1">
			<data element_type="f32" offset="6420" shape="" size="4"/>
			<output>
				<port id="0" precision="FP32"/>
			</output>
		</layer>
		<layer id="159" name="12672/value1267416240" type="Const" version="opset1">
			<data element_type="i64" offset="6424" shape="5" size="40"/>
			<output>
				<port id="0" precision="I64">
					<dim>5</dim>
				</port>
			</output>
		</layer>
		<layer id="160" name="Reshape_2555018480/quantized991314503" type="Const" version="opset1">
			<data element_type="i8" offset="6464" shape="96,1,7,7" size="4704"/>
			<output>
				<port id="0" precision="I8">
					<dim>96</dim>
					<dim>1</dim>
					<dim>7</dim>
					<dim>7</dim>
				</port>
			</output>
		</layer>
		<layer id="161" name="Reshape_2555018480/quantized/to_f32" type="Convert" version="opset1">
			<data destination_type="f32"/>
			<input>
				<port id="0">
					<dim>96</dim>
					<dim>1</dim>
					<dim>7</dim>
					<dim>7</dim>
				</port>
			</input>
			<output>
				<port id="1" precision="FP32">
					<dim>96</dim>
					<dim>1</dim>
					<dim>7</dim>
					<dim>7</dim>
				</port>
			</output>
		</layer>
		<layer id="162" name="Conv_12/WithoutBiases/fq_weights_1/zero_point993214551" type="Const" version="opset1">
			<data element_type="f32" offset="11168" shape="96,1,1,1" size="384"/>
			<output>
				<port id="0" precision="FP32">
					<dim>96</dim>
					<dim>1</dim>
					<dim>1</dim>
					<dim>1</dim>
				</port>
			</output>
		</layer>
		<layer id="163" name="Conv_12/WithoutBiases/fq_weights_1/minus_zp" type="Subtract" version="opset1">
			<data auto_broadcast="numpy"/>
			<input>
				<port id="0">
					<dim>96</dim>
					<dim>1</dim>
					<dim>7</dim>
					<dim>7</dim>
				</port>
				<port id="1">
					<dim>96</dim>
					<dim>1</dim>
					<dim>1</dim>
					<dim>1</dim>
				</port>
			</input>
			<output>
				<port id="2" precision="FP32">
					<dim>96</dim>
					<dim>1</dim>
					<dim>7</dim>
					<dim>7</dim>
				</port>
			</output>
		</layer>
		<layer id="164" name="Conv_12/WithoutBiases/fq_weights_1/scale992116276" type="Const" version="opset1">
			<data element_type="f32" offset="11552" shape="96,1,1,1" size="384"/>
			<output>
				<port id="0" precision="FP32">
					<dim>96</dim>
					<dim>1</dim>
					<dim>1</dim>
					<dim>1</dim>
				</port>
			</output>
		</layer>
		<layer id="165" name="Conv_12/WithoutBiases/fq_weights_1/mulpiply_by_scale" type="Multiply" version="opset1">
			<data auto_broadcast="numpy"/>
			<input>
				<port id="0">
					<dim>96</dim>
					<dim>1</dim>
					<dim>7</dim>
					<dim>7</dim>
				</port>
				<port id="1">
					<dim>96</dim>
					<dim>1</dim>
					<dim>1</dim>
					<dim>1</dim>
				</port>
			</input>
			<output>
				<port id="2" precision="FP32">
					<dim>96</dim>
					<dim>1</dim>
					<dim>7</dim>
					<dim>7</dim>
				</port>
			</output>
		</layer>
		<layer id="166" name="12672" type="Reshape" version="opset1">
			<data special_zero="true"/>
			<input>
				<port id="0">
					<dim>96</dim>
					<dim>1</dim>
					<dim>7</dim>
					<dim>7</dim>
				</port>
				<port id="1">
					<dim>5</dim>
				</port>
			</input>
			<output>
				<port id="2" precision="FP32">
					<dim>96</dim>
					<dim>1</dim>
					<dim>1</dim>
					<dim>7</dim>
					<dim>7</dim>
				</port>
			</output>
		</layer>
		<layer id="167" name="Conv_12/WithoutBiases" type="GroupConvolution" version="opset1">
			<data auto_pad="explicit" dilations="1,1" pads_begin="3,3" pads_end="3,3" strides="1,1"/>
			<rt_info>
				<attribute name="fused_names" value="Conv_12/WithoutBiases, Reshape_255" version="0"/>
			</rt_info>
			<input>
				<port id="0">
					<dim>1</dim>
					<dim>96</dim>
					<dim>56</dim>
					<dim>56</dim>
				</port>
				<port id="1">
					<dim>96</dim>
					<dim>1</dim>
					<dim>1</dim>
					<dim>7</dim>
					<dim>7</dim>
				</port>
			</input>
			<output>
				<port id="2" precision="FP32">
					<dim>1</dim>
					<dim>96</dim>
					<dim>56</dim>
					<dim>56</dim>
				</port>
			</output>
		</layer>
		<layer id="168" name="Reshape_34150316423" type="Const" version="opset1">
			<data element_type="f32" offset="11936" shape="1,96,1,1" size="384"/>
			<output>
				<port id="0" precision="FP32">
					<dim>1</dim>
					<dim>96</dim>
					<dim>1</dim>
					<dim>1</dim>
				</port>
			</output>
		</layer>
		<layer id="169" name="Conv_12" type="Add" version="opset1">
			<data auto_broadcast="numpy"/>
			<rt_info>
				<attribute name="fused_names" value="Concat_340, Conv_12, Reshape_341" version="0"/>
			</rt_info>
			<input>
				<port id="0">
					<dim>1</dim>
					<dim>96</dim>
					<dim>56</dim>
					<dim>56</dim>
				</port>
				<port id="1">
					<dim>1</dim>
					<dim>96</dim>
					<dim>1</dim>
					<dim>1</dim>
				</port>
			</input>
			<output>
				<port id="2" names="201" precision="FP32">
					<dim>1</dim>
					<dim>96</dim>
					<dim>56</dim>
					<dim>56</dim>
				</port>
			</output>
		</layer>
		<layer id="170" name="Transpose_13/fq_input_0" type="FakeQuantize" version="opset1">
			<data auto_broadcast="numpy" levels="256"/>
			<input>
				<port id="0">
					<dim>1</dim>
					<dim>96</dim>
					<dim>56</dim>
					<dim>56</dim>
				</port>
				<port id="1"/>
				<port id="2"/>
				<port id="3"/>
				<port id="4"/>
			</input>
			<output>
				<port id="5" precision="FP32">
					<dim>1</dim>
					<dim>96</dim>
					<dim>56</dim>
					<dim>56</dim>
				</port>
			</output>
		</layer>
		<layer id="171" name="Constant_369505" type="Const" version="opset1">
			<data element_type="i64" offset="12320" shape="4" size="32"/>
			<rt_info>
				<attribute name="fused_names" value="Constant_369" version="0"/>
			</rt_info>
			<output>
				<port id="0" precision="I64">
					<dim>4</dim>
				</port>
			</output>
		</layer>
		<layer id="172" name="Transpose_13" type="Transpose" version="opset1">
			<rt_info>
				<attribute name="fused_names" value="Transpose_13" version="0"/>
			</rt_info>
			<input>
				<port id="0">
					<dim>1</dim>
					<dim>96</dim>
					<dim>56</dim>
					<dim>56</dim>
				</port>
				<port id="1">
					<dim>4</dim>
				</port>
			</input>
			<output>
				<port id="2" names="202" precision="FP32">
					<dim>1</dim>
					<dim>56</dim>
					<dim>56</dim>
					<dim>96</dim>
				</port>
			</output>
		</layer>
		<layer id="173" name="Div_22" type="MVN" version="opset6">
			<data eps="9.999999974752427e-07" eps_mode="INSIDE_SQRT" normalize_variance="true"/>
			<rt_info>
				<attribute name="fused_names" value="Add_20, Div_22, Pow_17, ReduceMean_14, ReduceMean_18, Sqrt_21, Sub_15" version="0"/>
			</rt_info>
			<input>
				<port id="0">
					<dim>1</dim>
					<dim>56</dim>
					<dim>56</dim>
					<dim>96</dim>
				</port>
				<port id="1">
					<dim>1</dim>
				</port>
			</input>
			<output>
				<port id="2" names="211" precision="FP32">
					<dim>1</dim>
					<dim>56</dim>
					<dim>56</dim>
					<dim>96</dim>
				</port>
			</output>
		</layer>
		<layer id="174" name="Constant_701550914383" type="Const" version="opset1">
			<data element_type="f32" offset="12352" shape="1,1,1,96" size="384"/>
			<output>
				<port id="0" precision="FP32">
					<dim>1</dim>
					<dim>1</dim>
					<dim>1</dim>
					<dim>96</dim>
				</port>
			</output>
		</layer>
		<layer id="175" name="Mul_23" type="Multiply" version="opset1">
			<data auto_broadcast="numpy"/>
			<rt_info>
				<attribute name="fused_names" value="Mul_23" version="0"/>
			</rt_info>
			<input>
				<port id="0">
					<dim>1</dim>
					<dim>56</dim>
					<dim>56</dim>
					<dim>96</dim>
				</port>
				<port id="1">
					<dim>1</dim>
					<dim>1</dim>
					<dim>1</dim>
					<dim>96</dim>
				</port>
			</input>
			<output>
				<port id="2" names="212" precision="FP32">
					<dim>1</dim>
					<dim>56</dim>
					<dim>56</dim>
					<dim>96</dim>
				</port>
			</output>
		</layer>
		<layer id="176" name="Constant_701651115802" type="Const" version="opset1">
			<data element_type="f32" offset="12736" shape="1,1,1,96" size="384"/>
			<output>
				<port id="0" precision="FP32">
					<dim>1</dim>
					<dim>1</dim>
					<dim>1</dim>
					<dim>96</dim>
				</port>
			</output>
		</layer>
		<layer id="177" name="Add_24" type="Add" version="opset1">
			<data auto_broadcast="numpy"/>
			<rt_info>
				<attribute name="fused_names" value="Add_24" version="0"/>
			</rt_info>
			<input>
				<port id="0">
					<dim>1</dim>
					<dim>56</dim>
					<dim>56</dim>
					<dim>96</dim>
				</port>
				<port id="1">
					<dim>1</dim>
					<dim>1</dim>
					<dim>1</dim>
					<dim>96</dim>
				</port>
			</input>
			<output>
				<port id="2" names="213" precision="FP32">
					<dim>1</dim>
					<dim>56</dim>
					<dim>56</dim>
					<dim>96</dim>
				</port>
			</output>
		</layer>
		<layer id="178" name="MatMul_25/fq_input_0" type="FakeQuantize" version="opset1">
			<data auto_broadcast="numpy" levels="256"/>
			<input>
				<port id="0">
					<dim>1</dim>
					<dim>56</dim>
					<dim>56</dim>
					<dim>96</dim>
				</port>
				<port id="1"/>
				<port id="2"/>
				<port id="3"/>
				<port id="4"/>
			</input>
			<output>
				<port id="5" precision="FP32">
					<dim>1</dim>
					<dim>56</dim>
					<dim>56</dim>
					<dim>96</dim>
				</port>
			</output>
		</layer>
		<layer id="179" name="Constant_62735138486/quantized958316462" type="Const" version="opset1">
			<data element_type="i8" offset="13120" shape="384,96" size="36864"/>
			<output>
				<port id="0" precision="I8">
					<dim>384</dim>
					<dim>96</dim>
				</port>
			</output>
		</layer>
		<layer id="180" name="Constant_62735138486/quantized/to_f32" type="Convert" version="opset1">
			<data destination_type="f32"/>
			<input>
				<port id="0">
					<dim>384</dim>
					<dim>96</dim>
				</port>
			</input>
			<output>
				<port id="1" precision="FP32">
					<dim>384</dim>
					<dim>96</dim>
				</port>
			</output>
		</layer>
		<layer id="181" name="MatMul_25/fq_weights_1/zero_point960214950" type="Const" version="opset1">
			<data element_type="f32" offset="49984" shape="384,1" size="1536"/>
			<output>
				<port id="0" precision="FP32">
					<dim>384</dim>
					<dim>1</dim>
				</port>
			</output>
		</layer>
		<layer id="182" name="MatMul_25/fq_weights_1/minus_zp" type="Subtract" version="opset1">
			<data auto_broadcast="numpy"/>
			<input>
				<port id="0">
					<dim>384</dim>
					<dim>96</dim>
				</port>
				<port id="1">
					<dim>384</dim>
					<dim>1</dim>
				</port>
			</input>
			<output>
				<port id="2" precision="FP32">
					<dim>384</dim>
					<dim>96</dim>
				</port>
			</output>
		</layer>
		<layer id="183" name="MatMul_25/fq_weights_1/scale959115433" type="Const" version="opset1">
			<data element_type="f32" offset="51520" shape="384,1" size="1536"/>
			<output>
				<port id="0" precision="FP32">
					<dim>384</dim>
					<dim>1</dim>
				</port>
			</output>
		</layer>
		<layer id="184" name="MatMul_25/fq_weights_1/mulpiply_by_scale" type="Multiply" version="opset1">
			<data auto_broadcast="numpy"/>
			<input>
				<port id="0">
					<dim>384</dim>
					<dim>96</dim>
				</port>
				<port id="1">
					<dim>384</dim>
					<dim>1</dim>
				</port>
			</input>
			<output>
				<port id="2" precision="FP32">
					<dim>384</dim>
					<dim>96</dim>
				</port>
			</output>
		</layer>
		<layer id="185" name="MatMul_25" type="MatMul" version="opset1">
			<data transpose_a="false" transpose_b="true"/>
			<rt_info>
				<attribute name="fused_names" value="813, MatMul_25" version="0"/>
			</rt_info>
			<input>
				<port id="0">
					<dim>1</dim>
					<dim>56</dim>
					<dim>56</dim>
					<dim>96</dim>
				</port>
				<port id="1">
					<dim>384</dim>
					<dim>96</dim>
				</port>
			</input>
			<output>
				<port id="2" names="215" precision="FP32">
					<dim>1</dim>
					<dim>56</dim>
					<dim>56</dim>
					<dim>384</dim>
				</port>
			</output>
		</layer>
		<layer id="186" name="Constant_701751516315" type="Const" version="opset1">
			<data element_type="f32" offset="53056" shape="1,1,1,384" size="1536"/>
			<output>
				<port id="0" precision="FP32">
					<dim>1</dim>
					<dim>1</dim>
					<dim>1</dim>
					<dim>384</dim>
				</port>
			</output>
		</layer>
		<layer id="187" name="Add_26" type="Add" version="opset1">
			<data auto_broadcast="numpy"/>
			<rt_info>
				<attribute name="fused_names" value="Add_26" version="0"/>
			</rt_info>
			<input>
				<port id="0">
					<dim>1</dim>
					<dim>56</dim>
					<dim>56</dim>
					<dim>384</dim>
				</port>
				<port id="1">
					<dim>1</dim>
					<dim>1</dim>
					<dim>1</dim>
					<dim>384</dim>
				</port>
			</input>
			<output>
				<port id="2" names="216" precision="FP32">
					<dim>1</dim>
					<dim>56</dim>
					<dim>56</dim>
					<dim>384</dim>
				</port>
			</output>
		</layer>
		<layer id="188" name="Mul_34" type="Gelu" version="opset7">
			<data approximation_mode="ERF"/>
			<rt_info>
				<attribute name="fused_names" value="Add_31, Div_28, Erf_29, Mul_32, Mul_34" version="0"/>
			</rt_info>
			<input>
				<port id="0">
					<dim>1</dim>
					<dim>56</dim>
					<dim>56</dim>
					<dim>384</dim>
				</port>
			</input>
			<output>
				<port id="1" names="224" precision="FP32">
					<dim>1</dim>
					<dim>56</dim>
					<dim>56</dim>
					<dim>384</dim>
				</port>
			</output>
		</layer>
		<layer id="189" name="Multiply_6559/fq_input_0" type="FakeQuantize" version="opset1">
			<data auto_broadcast="numpy" levels="256"/>
			<input>
				<port id="0">
					<dim>1</dim>
					<dim>56</dim>
					<dim>56</dim>
					<dim>384</dim>
				</port>
				<port id="1"/>
				<port id="2"/>
				<port id="3"/>
				<port id="4"/>
			</input>
			<output>
				<port id="5" precision="FP32">
					<dim>1</dim>
					<dim>56</dim>
					<dim>56</dim>
					<dim>384</dim>
				</port>
			</output>
		</layer>
		<layer id="190" name="Constant_66485188488/quantized979314686" type="Const" version="opset1">
			<data element_type="i8" offset="54592" shape="96,384" size="36864"/>
			<output>
				<port id="0" precision="I8">
					<dim>96</dim>
					<dim>384</dim>
				</port>
			</output>
		</layer>
		<layer id="191" name="Constant_66485188488/quantized/to_f32" type="Convert" version="opset1">
			<data destination_type="f32"/>
			<input>
				<port id="0">
					<dim>96</dim>
					<dim>384</dim>
				</port>
			</input>
			<output>
				<port id="1" precision="FP32">
					<dim>96</dim>
					<dim>384</dim>
				</port>
			</output>
		</layer>
		<layer id="192" name="Multiply_6559/fq_weights_1/zero_point981215721" type="Const" version="opset1">
			<data element_type="f32" offset="91456" shape="96,1" size="384"/>
			<output>
				<port id="0" precision="FP32">
					<dim>96</dim>
					<dim>1</dim>
				</port>
			</output>
		</layer>
		<layer id="193" name="Multiply_6559/fq_weights_1/minus_zp" type="Subtract" version="opset1">
			<data auto_broadcast="numpy"/>
			<input>
				<port id="0">
					<dim>96</dim>
					<dim>384</dim>
				</port>
				<port id="1">
					<dim>96</dim>
					<dim>1</dim>
				</port>
			</input>
			<output>
				<port id="2" precision="FP32">
					<dim>96</dim>
					<dim>384</dim>
				</port>
			</output>
		</layer>
		<layer id="194" name="Multiply_6559/fq_weights_1/scale980114341" type="Const" version="opset1">
			<data element_type="f32" offset="91840" shape="96,1" size="384"/>
			<output>
				<port id="0" precision="FP32">
					<dim>96</dim>
					<dim>1</dim>
				</port>
			</output>
		</layer>
		<layer id="195" name="Multiply_6559/fq_weights_1/mulpiply_by_scale" type="Multiply" version="opset1">
			<data auto_broadcast="numpy"/>
			<input>
				<port id="0">
					<dim>96</dim>
					<dim>384</dim>
				</port>
				<port id="1">
					<dim>96</dim>
					<dim>1</dim>
				</port>
			</input>
			<output>
				<port id="2" precision="FP32">
					<dim>96</dim>
					<dim>384</dim>
				</port>
			</output>
		</layer>
		<layer id="196" name="Multiply_6559" type="MatMul" version="opset1">
			<data transpose_a="false" transpose_b="true"/>
			<rt_info>
				<attribute name="fused_names" value="814, Add_36, MatMul_35, Mul_37, stages.0.0.gamma" version="0"/>
			</rt_info>
			<input>
				<port id="0">
					<dim>1</dim>
					<dim>56</dim>
					<dim>56</dim>
					<dim>384</dim>
				</port>
				<port id="1">
					<dim>96</dim>
					<dim>384</dim>
				</port>
			</input>
			<output>
				<port id="2" precision="FP32">
					<dim>1</dim>
					<dim>56</dim>
					<dim>56</dim>
					<dim>96</dim>
				</port>
			</output>
		</layer>
		<layer id="197" name="Constant_701852015193" type="Const" version="opset1">
			<data element_type="f32" offset="92224" shape="1,1,1,96" size="384"/>
			<output>
				<port id="0" precision="FP32">
					<dim>1</dim>
					<dim>1</dim>
					<dim>1</dim>
					<dim>96</dim>
				</port>
			</output>
		</layer>
		<layer id="198" name="Mul_37" type="Add" version="opset1">
			<data auto_broadcast="numpy"/>
			<rt_info>
				<attribute name="fused_names" value="Add_36, Mul_37" version="0"/>
			</rt_info>
			<input>
				<port id="0">
					<dim>1</dim>
					<dim>56</dim>
					<dim>56</dim>
					<dim>96</dim>
				</port>
				<port id="1">
					<dim>1</dim>
					<dim>1</dim>
					<dim>1</dim>
					<dim>96</dim>
				</port>
			</input>
			<output>
				<port id="2" names="228" precision="FP32">
					<dim>1</dim>
					<dim>56</dim>
					<dim>56</dim>
					<dim>96</dim>
				</port>
			</output>
		</layer>
		<layer id="199" name="Transpose_38/fq_input_0" type="FakeQuantize" version="opset1">
			<data auto_broadcast="numpy" levels="256"/>
			<input>
				<port id="0">
					<dim>1</dim>
					<dim>56</dim>
					<dim>56</dim>
					<dim>96</dim>
				</port>
				<port id="1"/>
				<port id="2"/>
				<port id="3"/>
				<port id="4"/>
			</input>
			<output>
				<port id="5" precision="FP32">
					<dim>1</dim>
					<dim>56</dim>
					<dim>56</dim>
					<dim>96</dim>
				</port>
			</output>
		</layer>
		<layer id="200" name="Constant_397522" type="Const" version="opset1">
			<data element_type="i64" offset="92608" shape="4" size="32"/>
			<rt_info>
				<attribute name="fused_names" value="Constant_397" version="0"/>
			</rt_info>
			<output>
				<port id="0" precision="I64">
					<dim>4</dim>
				</port>
			</output>
		</layer>
		<layer id="201" name="Transpose_38" type="Transpose" version="opset1">
			<rt_info>
				<attribute name="fused_names" value="Transpose_38" version="0"/>
			</rt_info>
			<input>
				<port id="0">
					<dim>1</dim>
					<dim>56</dim>
					<dim>56</dim>
					<dim>96</dim>
				</port>
				<port id="1">
					<dim>4</dim>
				</port>
			</input>
			<output>
				<port id="2" names="229" precision="FP32">
					<dim>1</dim>
					<dim>96</dim>
					<dim>56</dim>
					<dim>56</dim>
				</port>
			</output>
		</layer>
		<layer id="202" name="Add_39" type="Add" version="opset1">
			<data auto_broadcast="numpy"/>
			<rt_info>
				<attribute name="fused_names" value="Add_39" version="0"/>
			</rt_info>
			<input>
				<port id="0">
					<dim>1</dim>
					<dim>96</dim>
					<dim>56</dim>
					<dim>56</dim>
				</port>
				<port id="1">
					<dim>1</dim>
					<dim>96</dim>
					<dim>56</dim>
					<dim>56</dim>
				</port>
			</input>
			<output>
				<port id="2" names="230" precision="FP32">
					<dim>1</dim>
					<dim>96</dim>
					<dim>56</dim>
					<dim>56</dim>
				</port>
			</output>
		</layer>
		<layer id="203" name="Add_67/fq_input_0" type="FakeQuantize" version="opset1">
			<data auto_broadcast="numpy" levels="256"/>
			<input>
				<port id="0">
					<dim>1</dim>
					<dim>96</dim>
					<dim>56</dim>
					<dim>56</dim>
				</port>
				<port id="1"/>
				<port id="2"/>
				<port id="3"/>
				<port id="4"/>
			</input>
			<output>
				<port id="5" precision="FP32">
					<dim>1</dim>
					<dim>96</dim>
					<dim>56</dim>
					<dim>56</dim>
				</port>
			</output>
		</layer>
		<layer id="204" name="4745474915184" type="Const" version="opset1">
			<data element_type="f32" offset="92640" shape="" size="4"/>
			<output>
				<port id="0" precision="FP32"/>
			</output>
		</layer>
		<layer id="205" name="4746475016522" type="Const" version="opset1">
			<data element_type="f32" offset="92644" shape="" size="4"/>
			<output>
				<port id="0" precision="FP32"/>
			</output>
		</layer>
		<layer id="206" name="4747475114707" type="Const" version="opset1">
			<data element_type="f32" offset="92640" shape="" size="4"/>
			<output>
				<port id="0" precision="FP32"/>
			</output>
		</layer>
		<layer id="207" name="4748475215109" type="Const" version="opset1">
			<data element_type="f32" offset="92644" shape="" size="4"/>
			<output>
				<port id="0" precision="FP32"/>
			</output>
		</layer>
		<layer id="208" name="2979298314767" type="Const" version="opset1">
			<data element_type="f32" offset="92648" shape="" size="4"/>
			<output>
				<port id="0" precision="FP32"/>
			</output>
		</layer>
		<layer id="209" name="2980298416291" type="Const" version="opset1">
			<data element_type="f32" offset="92652" shape="" size="4"/>
			<output>
				<port id="0" precision="FP32"/>
			</output>
		</layer>
		<layer id="210" name="2981298514545" type="Const" version="opset1">
			<data element_type="f32" offset="92648" shape="" size="4"/>
			<output>
				<port id="0" precision="FP32"/>
			</output>
		</layer>
		<layer id="211" name="2982298614515" type="Const" version="opset1">
			<data element_type="f32" offset="92652" shape="" size="4"/>
			<output>
				<port id="0" precision="FP32"/>
			</output>
		</layer>
		<layer id="212" name="2499250314560" type="Const" version="opset1">
			<data element_type="f32" offset="92656" shape="" size="4"/>
			<output>
				<port id="0" precision="FP32"/>
			</output>
		</layer>
		<layer id="213" name="2500250414803" type="Const" version="opset1">
			<data element_type="f32" offset="92660" shape="" size="4"/>
			<output>
				<port id="0" precision="FP32"/>
			</output>
		</layer>
		<layer id="214" name="2501250515856" type="Const" version="opset1">
			<data element_type="f32" offset="92656" shape="" size="4"/>
			<output>
				<port id="0" precision="FP32"/>
			</output>
		</layer>
		<layer id="215" name="2502250616435" type="Const" version="opset1">
			<data element_type="f32" offset="92660" shape="" size="4"/>
			<output>
				<port id="0" precision="FP32"/>
			</output>
		</layer>
		<layer id="216" name="Constant_52353114890" type="Const" version="opset1">
			<data element_type="i64" offset="8" shape="1" size="8"/>
			<rt_info>
				<attribute name="fused_names" value="Constant_523" version="0"/>
			</rt_info>
			<output>
				<port id="0" precision="I64">
					<dim>1</dim>
				</port>
			</output>
		</layer>
		<layer id="217" name="4905490915640" type="Const" version="opset1">
			<data element_type="f32" offset="92664" shape="" size="4"/>
			<output>
				<port id="0" precision="FP32"/>
			</output>
		</layer>
		<layer id="218" name="4906491015688" type="Const" version="opset1">
			<data element_type="f32" offset="92668" shape="" size="4"/>
			<output>
				<port id="0" precision="FP32"/>
			</output>
		</layer>
		<layer id="219" name="4907491115496" type="Const" version="opset1">
			<data element_type="f32" offset="92664" shape="" size="4"/>
			<output>
				<port id="0" precision="FP32"/>
			</output>
		</layer>
		<layer id="220" name="4908491215547" type="Const" version="opset1">
			<data element_type="f32" offset="92668" shape="" size="4"/>
			<output>
				<port id="0" precision="FP32"/>
			</output>
		</layer>
		<layer id="221" name="12676/value1267815859" type="Const" version="opset1">
			<data element_type="i64" offset="6424" shape="5" size="40"/>
			<output>
				<port id="0" precision="I64">
					<dim>5</dim>
				</port>
			</output>
		</layer>
		<layer id="222" name="Reshape_4075258491/quantized1075315577" type="Const" version="opset1">
			<data element_type="i8" offset="92672" shape="96,1,7,7" size="4704"/>
			<output>
				<port id="0" precision="I8">
					<dim>96</dim>
					<dim>1</dim>
					<dim>7</dim>
					<dim>7</dim>
				</port>
			</output>
		</layer>
		<layer id="223" name="Reshape_4075258491/quantized/to_f32" type="Convert" version="opset1">
			<data destination_type="f32"/>
			<input>
				<port id="0">
					<dim>96</dim>
					<dim>1</dim>
					<dim>7</dim>
					<dim>7</dim>
				</port>
			</input>
			<output>
				<port id="1" precision="FP32">
					<dim>96</dim>
					<dim>1</dim>
					<dim>7</dim>
					<dim>7</dim>
				</port>
			</output>
		</layer>
		<layer id="224" name="Conv_40/WithoutBiases/fq_weights_1/zero_point1077214278" type="Const" version="opset1">
			<data element_type="f32" offset="97376" shape="96,1,1,1" size="384"/>
			<output>
				<port id="0" precision="FP32">
					<dim>96</dim>
					<dim>1</dim>
					<dim>1</dim>
					<dim>1</dim>
				</port>
			</output>
		</layer>
		<layer id="225" name="Conv_40/WithoutBiases/fq_weights_1/minus_zp" type="Subtract" version="opset1">
			<data auto_broadcast="numpy"/>
			<input>
				<port id="0">
					<dim>96</dim>
					<dim>1</dim>
					<dim>7</dim>
					<dim>7</dim>
				</port>
				<port id="1">
					<dim>96</dim>
					<dim>1</dim>
					<dim>1</dim>
					<dim>1</dim>
				</port>
			</input>
			<output>
				<port id="2" precision="FP32">
					<dim>96</dim>
					<dim>1</dim>
					<dim>7</dim>
					<dim>7</dim>
				</port>
			</output>
		</layer>
		<layer id="226" name="Conv_40/WithoutBiases/fq_weights_1/scale1076115289" type="Const" version="opset1">
			<data element_type="f32" offset="97760" shape="96,1,1,1" size="384"/>
			<output>
				<port id="0" precision="FP32">
					<dim>96</dim>
					<dim>1</dim>
					<dim>1</dim>
					<dim>1</dim>
				</port>
			</output>
		</layer>
		<layer id="227" name="Conv_40/WithoutBiases/fq_weights_1/mulpiply_by_scale" type="Multiply" version="opset1">
			<data auto_broadcast="numpy"/>
			<input>
				<port id="0">
					<dim>96</dim>
					<dim>1</dim>
					<dim>7</dim>
					<dim>7</dim>
				</port>
				<port id="1">
					<dim>96</dim>
					<dim>1</dim>
					<dim>1</dim>
					<dim>1</dim>
				</port>
			</input>
			<output>
				<port id="2" precision="FP32">
					<dim>96</dim>
					<dim>1</dim>
					<dim>7</dim>
					<dim>7</dim>
				</port>
			</output>
		</layer>
		<layer id="228" name="12676" type="Reshape" version="opset1">
			<data special_zero="true"/>
			<input>
				<port id="0">
					<dim>96</dim>
					<dim>1</dim>
					<dim>7</dim>
					<dim>7</dim>
				</port>
				<port id="1">
					<dim>5</dim>
				</port>
			</input>
			<output>
				<port id="2" precision="FP32">
					<dim>96</dim>
					<dim>1</dim>
					<dim>1</dim>
					<dim>7</dim>
					<dim>7</dim>
				</port>
			</output>
		</layer>
		<layer id="229" name="Conv_40/WithoutBiases" type="GroupConvolution" version="opset1">
			<data auto_pad="explicit" dilations="1,1" pads_begin="3,3" pads_end="3,3" strides="1,1"/>
			<rt_info>
				<attribute name="fused_names" value="Conv_40/WithoutBiases, Reshape_407" version="0"/>
			</rt_info>
			<input>
				<port id="0">
					<dim>1</dim>
					<dim>96</dim>
					<dim>56</dim>
					<dim>56</dim>
				</port>
				<port id="1">
					<dim>96</dim>
					<dim>1</dim>
					<dim>1</dim>
					<dim>7</dim>
					<dim>7</dim>
				</port>
			</input>
			<output>
				<port id="2" precision="FP32">
					<dim>1</dim>
					<dim>96</dim>
					<dim>56</dim>
					<dim>56</dim>
				</port>
			</output>
		</layer>
		<layer id="230" name="Reshape_49352715385" type="Const" version="opset1">
			<data element_type="f32" offset="98144" shape="1,96,1,1" size="384"/>
			<output>
				<port id="0" precision="FP32">
					<dim>1</dim>
					<dim>96</dim>
					<dim>1</dim>
					<dim>1</dim>
				</port>
			</output>
		</layer>
		<layer id="231" name="Conv_40" type="Add" version="opset1">
			<data auto_broadcast="numpy"/>
			<rt_info>
				<attribute name="fused_names" value="Concat_492, Conv_40, Reshape_493" version="0"/>
			</rt_info>
			<input>
				<port id="0">
					<dim>1</dim>
					<dim>96</dim>
					<dim>56</dim>
					<dim>56</dim>
				</port>
				<port id="1">
					<dim>1</dim>
					<dim>96</dim>
					<dim>1</dim>
					<dim>1</dim>
				</port>
			</input>
			<output>
				<port id="2" names="231" precision="FP32">
					<dim>1</dim>
					<dim>96</dim>
					<dim>56</dim>
					<dim>56</dim>
				</port>
			</output>
		</layer>
		<layer id="232" name="Transpose_41/fq_input_0" type="FakeQuantize" version="opset1">
			<data auto_broadcast="numpy" levels="256"/>
			<input>
				<port id="0">
					<dim>1</dim>
					<dim>96</dim>
					<dim>56</dim>
					<dim>56</dim>
				</port>
				<port id="1"/>
				<port id="2"/>
				<port id="3"/>
				<port id="4"/>
			</input>
			<output>
				<port id="5" precision="FP32">
					<dim>1</dim>
					<dim>96</dim>
					<dim>56</dim>
					<dim>56</dim>
				</port>
			</output>
		</layer>
		<layer id="233" name="Constant_521529" type="Const" version="opset1">
			<data element_type="i64" offset="12320" shape="4" size="32"/>
			<rt_info>
				<attribute name="fused_names" value="Constant_521" version="0"/>
			</rt_info>
			<output>
				<port id="0" precision="I64">
					<dim>4</dim>
				</port>
			</output>
		</layer>
		<layer id="234" name="Transpose_41" type="Transpose" version="opset1">
			<rt_info>
				<attribute name="fused_names" value="Transpose_41" version="0"/>
			</rt_info>
			<input>
				<port id="0">
					<dim>1</dim>
					<dim>96</dim>
					<dim>56</dim>
					<dim>56</dim>
				</port>
				<port id="1">
					<dim>4</dim>
				</port>
			</input>
			<output>
				<port id="2" names="232" precision="FP32">
					<dim>1</dim>
					<dim>56</dim>
					<dim>56</dim>
					<dim>96</dim>
				</port>
			</output>
		</layer>
		<layer id="235" name="Div_50" type="MVN" version="opset6">
			<data eps="9.999999974752427e-07" eps_mode="INSIDE_SQRT" normalize_variance="true"/>
			<rt_info>
				<attribute name="fused_names" value="Add_48, Div_50, Pow_45, ReduceMean_42, ReduceMean_46, Sqrt_49, Sub_43" version="0"/>
			</rt_info>
			<input>
				<port id="0">
					<dim>1</dim>
					<dim>56</dim>
					<dim>56</dim>
					<dim>96</dim>
				</port>
				<port id="1">
					<dim>1</dim>
				</port>
			</input>
			<output>
				<port id="2" names="241" precision="FP32">
					<dim>1</dim>
					<dim>56</dim>
					<dim>56</dim>
					<dim>96</dim>
				</port>
			</output>
		</layer>
		<layer id="236" name="Constant_701953314836" type="Const" version="opset1">
			<data element_type="f32" offset="98528" shape="1,1,1,96" size="384"/>
			<output>
				<port id="0" precision="FP32">
					<dim>1</dim>
					<dim>1</dim>
					<dim>1</dim>
					<dim>96</dim>
				</port>
			</output>
		</layer>
		<layer id="237" name="Mul_51" type="Multiply" version="opset1">
			<data auto_broadcast="numpy"/>
			<rt_info>
				<attribute name="fused_names" value="Mul_51" version="0"/>
			</rt_info>
			<input>
				<port id="0">
					<dim>1</dim>
					<dim>56</dim>
					<dim>56</dim>
					<dim>96</dim>
				</port>
				<port id="1">
					<dim>1</dim>
					<dim>1</dim>
					<dim>1</dim>
					<dim>96</dim>
				</port>
			</input>
			<output>
				<port id="2" names="242" precision="FP32">
					<dim>1</dim>
					<dim>56</dim>
					<dim>56</dim>
					<dim>96</dim>
				</port>
			</output>
		</layer>
		<layer id="238" name="Constant_702053515460" type="Const" version="opset1">
			<data element_type="f32" offset="98912" shape="1,1,1,96" size="384"/>
			<output>
				<port id="0" precision="FP32">
					<dim>1</dim>
					<dim>1</dim>
					<dim>1</dim>
					<dim>96</dim>
				</port>
			</output>
		</layer>
		<layer id="239" name="Add_52" type="Add" version="opset1">
			<data auto_broadcast="numpy"/>
			<rt_info>
				<attribute name="fused_names" value="Add_52" version="0"/>
			</rt_info>
			<input>
				<port id="0">
					<dim>1</dim>
					<dim>56</dim>
					<dim>56</dim>
					<dim>96</dim>
				</port>
				<port id="1">
					<dim>1</dim>
					<dim>1</dim>
					<dim>1</dim>
					<dim>96</dim>
				</port>
			</input>
			<output>
				<port id="2" names="243" precision="FP32">
					<dim>1</dim>
					<dim>56</dim>
					<dim>56</dim>
					<dim>96</dim>
				</port>
			</output>
		</layer>
		<layer id="240" name="MatMul_53/fq_input_0" type="FakeQuantize" version="opset1">
			<data auto_broadcast="numpy" levels="256"/>
			<input>
				<port id="0">
					<dim>1</dim>
					<dim>56</dim>
					<dim>56</dim>
					<dim>96</dim>
				</port>
				<port id="1"/>
				<port id="2"/>
				<port id="3"/>
				<port id="4"/>
			</input>
			<output>
				<port id="5" precision="FP32">
					<dim>1</dim>
					<dim>56</dim>
					<dim>56</dim>
					<dim>96</dim>
				</port>
			</output>
		</layer>
		<layer id="241" name="Constant_62895378497/quantized1105314941" type="Const" version="opset1">
			<data element_type="i8" offset="99296" shape="384,96" size="36864"/>
			<output>
				<port id="0" precision="I8">
					<dim>384</dim>
					<dim>96</dim>
				</port>
			</output>
		</layer>
		<layer id="242" name="Constant_62895378497/quantized/to_f32" type="Convert" version="opset1">
			<data destination_type="f32"/>
			<input>
				<port id="0">
					<dim>384</dim>
					<dim>96</dim>
				</port>
			</input>
			<output>
				<port id="1" precision="FP32">
					<dim>384</dim>
					<dim>96</dim>
				</port>
			</output>
		</layer>
		<layer id="243" name="MatMul_53/fq_weights_1/zero_point1107216414" type="Const" version="opset1">
			<data element_type="f32" offset="136160" shape="384,1" size="1536"/>
			<output>
				<port id="0" precision="FP32">
					<dim>384</dim>
					<dim>1</dim>
				</port>
			</output>
		</layer>
		<layer id="244" name="MatMul_53/fq_weights_1/minus_zp" type="Subtract" version="opset1">
			<data auto_broadcast="numpy"/>
			<input>
				<port id="0">
					<dim>384</dim>
					<dim>96</dim>
				</port>
				<port id="1">
					<dim>384</dim>
					<dim>1</dim>
				</port>
			</input>
			<output>
				<port id="2" precision="FP32">
					<dim>384</dim>
					<dim>96</dim>
				</port>
			</output>
		</layer>
		<layer id="245" name="MatMul_53/fq_weights_1/scale1106114737" type="Const" version="opset1">
			<data element_type="f32" offset="137696" shape="384,1" size="1536"/>
			<output>
				<port id="0" precision="FP32">
					<dim>384</dim>
					<dim>1</dim>
				</port>
			</output>
		</layer>
		<layer id="246" name="MatMul_53/fq_weights_1/mulpiply_by_scale" type="Multiply" version="opset1">
			<data auto_broadcast="numpy"/>
			<input>
				<port id="0">
					<dim>384</dim>
					<dim>96</dim>
				</port>
				<port id="1">
					<dim>384</dim>
					<dim>1</dim>
				</port>
			</input>
			<output>
				<port id="2" precision="FP32">
					<dim>384</dim>
					<dim>96</dim>
				</port>
			</output>
		</layer>
		<layer id="247" name="MatMul_53" type="MatMul" version="opset1">
			<data transpose_a="false" transpose_b="true"/>
			<rt_info>
				<attribute name="fused_names" value="815, MatMul_53" version="0"/>
			</rt_info>
			<input>
				<port id="0">
					<dim>1</dim>
					<dim>56</dim>
					<dim>56</dim>
					<dim>96</dim>
				</port>
				<port id="1">
					<dim>384</dim>
					<dim>96</dim>
				</port>
			</input>
			<output>
				<port id="2" names="245" precision="FP32">
					<dim>1</dim>
					<dim>56</dim>
					<dim>56</dim>
					<dim>384</dim>
				</port>
			</output>
		</layer>
		<layer id="248" name="Constant_702153914296" type="Const" version="opset1">
			<data element_type="f32" offset="139232" shape="1,1,1,384" size="1536"/>
			<output>
				<port id="0" precision="FP32">
					<dim>1</dim>
					<dim>1</dim>
					<dim>1</dim>
					<dim>384</dim>
				</port>
			</output>
		</layer>
		<layer id="249" name="Add_54" type="Add" version="opset1">
			<data auto_broadcast="numpy"/>
			<rt_info>
				<attribute name="fused_names" value="Add_54" version="0"/>
			</rt_info>
			<input>
				<port id="0">
					<dim>1</dim>
					<dim>56</dim>
					<dim>56</dim>
					<dim>384</dim>
				</port>
				<port id="1">
					<dim>1</dim>
					<dim>1</dim>
					<dim>1</dim>
					<dim>384</dim>
				</port>
			</input>
			<output>
				<port id="2" names="246" precision="FP32">
					<dim>1</dim>
					<dim>56</dim>
					<dim>56</dim>
					<dim>384</dim>
				</port>
			</output>
		</layer>
		<layer id="250" name="Mul_62" type="Gelu" version="opset7">
			<data approximation_mode="ERF"/>
			<rt_info>
				<attribute name="fused_names" value="Add_59, Div_56, Erf_57, Mul_60, Mul_62" version="0"/>
			</rt_info>
			<input>
				<port id="0">
					<dim>1</dim>
					<dim>56</dim>
					<dim>56</dim>
					<dim>384</dim>
				</port>
			</input>
			<output>
				<port id="1" names="254" precision="FP32">
					<dim>1</dim>
					<dim>56</dim>
					<dim>56</dim>
					<dim>384</dim>
				</port>
			</output>
		</layer>
		<layer id="251" name="Multiply_6563/fq_input_0" type="FakeQuantize" version="opset1">
			<data auto_broadcast="numpy" levels="256"/>
			<input>
				<port id="0">
					<dim>1</dim>
					<dim>56</dim>
					<dim>56</dim>
					<dim>384</dim>
				</port>
				<port id="1"/>
				<port id="2"/>
				<port id="3"/>
				<port id="4"/>
			</input>
			<output>
				<port id="5" precision="FP32">
					<dim>1</dim>
					<dim>56</dim>
					<dim>56</dim>
					<dim>384</dim>
				</port>
			</output>
		</layer>
		<layer id="252" name="Constant_66675428499/quantized1030315190" type="Const" version="opset1">
			<data element_type="i8" offset="140768" shape="96,384" size="36864"/>
			<output>
				<port id="0" precision="I8">
					<dim>96</dim>
					<dim>384</dim>
				</port>
			</output>
		</layer>
		<layer id="253" name="Constant_66675428499/quantized/to_f32" type="Convert" version="opset1">
			<data destination_type="f32"/>
			<input>
				<port id="0">
					<dim>96</dim>
					<dim>384</dim>
				</port>
			</input>
			<output>
				<port id="1" precision="FP32">
					<dim>96</dim>
					<dim>384</dim>
				</port>
			</output>
		</layer>
		<layer id="254" name="Multiply_6563/fq_weights_1/zero_point1032215781" type="Const" version="opset1">
			<data element_type="f32" offset="177632" shape="96,1" size="384"/>
			<output>
				<port id="0" precision="FP32">
					<dim>96</dim>
					<dim>1</dim>
				</port>
			</output>
		</layer>
		<layer id="255" name="Multiply_6563/fq_weights_1/minus_zp" type="Subtract" version="opset1">
			<data auto_broadcast="numpy"/>
			<input>
				<port id="0">
					<dim>96</dim>
					<dim>384</dim>
				</port>
				<port id="1">
					<dim>96</dim>
					<dim>1</dim>
				</port>
			</input>
			<output>
				<port id="2" precision="FP32">
					<dim>96</dim>
					<dim>384</dim>
				</port>
			</output>
		</layer>
		<layer id="256" name="Multiply_6563/fq_weights_1/scale1031116471" type="Const" version="opset1">
			<data element_type="f32" offset="178016" shape="96,1" size="384"/>
			<output>
				<port id="0" precision="FP32">
					<dim>96</dim>
					<dim>1</dim>
				</port>
			</output>
		</layer>
		<layer id="257" name="Multiply_6563/fq_weights_1/mulpiply_by_scale" type="Multiply" version="opset1">
			<data auto_broadcast="numpy"/>
			<input>
				<port id="0">
					<dim>96</dim>
					<dim>384</dim>
				</port>
				<port id="1">
					<dim>96</dim>
					<dim>1</dim>
				</port>
			</input>
			<output>
				<port id="2" precision="FP32">
					<dim>96</dim>
					<dim>384</dim>
				</port>
			</output>
		</layer>
		<layer id="258" name="Multiply_6563" type="MatMul" version="opset1">
			<data transpose_a="false" transpose_b="true"/>
			<rt_info>
				<attribute name="fused_names" value="816, Add_64, MatMul_63, Mul_65, stages.0.1.gamma" version="0"/>
			</rt_info>
			<input>
				<port id="0">
					<dim>1</dim>
					<dim>56</dim>
					<dim>56</dim>
					<dim>384</dim>
				</port>
				<port id="1">
					<dim>96</dim>
					<dim>384</dim>
				</port>
			</input>
			<output>
				<port id="2" precision="FP32">
					<dim>1</dim>
					<dim>56</dim>
					<dim>56</dim>
					<dim>96</dim>
				</port>
			</output>
		</layer>
		<layer id="259" name="Constant_702254415298" type="Const" version="opset1">
			<data element_type="f32" offset="178400" shape="1,1,1,96" size="384"/>
			<output>
				<port id="0" precision="FP32">
					<dim>1</dim>
					<dim>1</dim>
					<dim>1</dim>
					<dim>96</dim>
				</port>
			</output>
		</layer>
		<layer id="260" name="Mul_65" type="Add" version="opset1">
			<data auto_broadcast="numpy"/>
			<rt_info>
				<attribute name="fused_names" value="Add_64, Mul_65" version="0"/>
			</rt_info>
			<input>
				<port id="0">
					<dim>1</dim>
					<dim>56</dim>
					<dim>56</dim>
					<dim>96</dim>
				</port>
				<port id="1">
					<dim>1</dim>
					<dim>1</dim>
					<dim>1</dim>
					<dim>96</dim>
				</port>
			</input>
			<output>
				<port id="2" names="258" precision="FP32">
					<dim>1</dim>
					<dim>56</dim>
					<dim>56</dim>
					<dim>96</dim>
				</port>
			</output>
		</layer>
		<layer id="261" name="Transpose_66/fq_input_0" type="FakeQuantize" version="opset1">
			<data auto_broadcast="numpy" levels="256"/>
			<input>
				<port id="0">
					<dim>1</dim>
					<dim>56</dim>
					<dim>56</dim>
					<dim>96</dim>
				</port>
				<port id="1"/>
				<port id="2"/>
				<port id="3"/>
				<port id="4"/>
			</input>
			<output>
				<port id="5" precision="FP32">
					<dim>1</dim>
					<dim>56</dim>
					<dim>56</dim>
					<dim>96</dim>
				</port>
			</output>
		</layer>
		<layer id="262" name="Constant_549546" type="Const" version="opset1">
			<data element_type="i64" offset="92608" shape="4" size="32"/>
			<rt_info>
				<attribute name="fused_names" value="Constant_549" version="0"/>
			</rt_info>
			<output>
				<port id="0" precision="I64">
					<dim>4</dim>
				</port>
			</output>
		</layer>
		<layer id="263" name="Transpose_66" type="Transpose" version="opset1">
			<rt_info>
				<attribute name="fused_names" value="Transpose_66" version="0"/>
			</rt_info>
			<input>
				<port id="0">
					<dim>1</dim>
					<dim>56</dim>
					<dim>56</dim>
					<dim>96</dim>
				</port>
				<port id="1">
					<dim>4</dim>
				</port>
			</input>
			<output>
				<port id="2" names="259" precision="FP32">
					<dim>1</dim>
					<dim>96</dim>
					<dim>56</dim>
					<dim>56</dim>
				</port>
			</output>
		</layer>
		<layer id="264" name="Add_67" type="Add" version="opset1">
			<data auto_broadcast="numpy"/>
			<rt_info>
				<attribute name="fused_names" value="Add_67" version="0"/>
			</rt_info>
			<input>
				<port id="0">
					<dim>1</dim>
					<dim>96</dim>
					<dim>56</dim>
					<dim>56</dim>
				</port>
				<port id="1">
					<dim>1</dim>
					<dim>96</dim>
					<dim>56</dim>
					<dim>56</dim>
				</port>
			</input>
			<output>
				<port id="2" names="260" precision="FP32">
					<dim>1</dim>
					<dim>96</dim>
					<dim>56</dim>
					<dim>56</dim>
				</port>
			</output>
		</layer>
		<layer id="265" name="Add_95/fq_input_0" type="FakeQuantize" version="opset1">
			<data auto_broadcast="numpy" levels="256"/>
			<input>
				<port id="0">
					<dim>1</dim>
					<dim>96</dim>
					<dim>56</dim>
					<dim>56</dim>
				</port>
				<port id="1"/>
				<port id="2"/>
				<port id="3"/>
				<port id="4"/>
			</input>
			<output>
				<port id="5" precision="FP32">
					<dim>1</dim>
					<dim>96</dim>
					<dim>56</dim>
					<dim>56</dim>
				</port>
			</output>
		</layer>
		<layer id="266" name="4755475915601" type="Const" version="opset1">
			<data element_type="f32" offset="178784" shape="" size="4"/>
			<output>
				<port id="0" precision="FP32"/>
			</output>
		</layer>
		<layer id="267" name="4756476014716" type="Const" version="opset1">
			<data element_type="f32" offset="178788" shape="" size="4"/>
			<output>
				<port id="0" precision="FP32"/>
			</output>
		</layer>
		<layer id="268" name="4757476114857" type="Const" version="opset1">
			<data element_type="f32" offset="178784" shape="" size="4"/>
			<output>
				<port id="0" precision="FP32"/>
			</output>
		</layer>
		<layer id="269" name="4758476214401" type="Const" version="opset1">
			<data element_type="f32" offset="178788" shape="" size="4"/>
			<output>
				<port id="0" precision="FP32"/>
			</output>
		</layer>
		<layer id="270" name="2799280316267" type="Const" version="opset1">
			<data element_type="f32" offset="178792" shape="" size="4"/>
			<output>
				<port id="0" precision="FP32"/>
			</output>
		</layer>
		<layer id="271" name="2800280416282" type="Const" version="opset1">
			<data element_type="f32" offset="178796" shape="" size="4"/>
			<output>
				<port id="0" precision="FP32"/>
			</output>
		</layer>
		<layer id="272" name="2801280515181" type="Const" version="opset1">
			<data element_type="f32" offset="178792" shape="" size="4"/>
			<output>
				<port id="0" precision="FP32"/>
			</output>
		</layer>
		<layer id="273" name="2802280614923" type="Const" version="opset1">
			<data element_type="f32" offset="178796" shape="" size="4"/>
			<output>
				<port id="0" precision="FP32"/>
			</output>
		</layer>
		<layer id="274" name="2999300314320" type="Const" version="opset1">
			<data element_type="f32" offset="178800" shape="" size="4"/>
			<output>
				<port id="0" precision="FP32"/>
			</output>
		</layer>
		<layer id="275" name="3000300415097" type="Const" version="opset1">
			<data element_type="f32" offset="178804" shape="" size="4"/>
			<output>
				<port id="0" precision="FP32"/>
			</output>
		</layer>
		<layer id="276" name="3001300516063" type="Const" version="opset1">
			<data element_type="f32" offset="178800" shape="" size="4"/>
			<output>
				<port id="0" precision="FP32"/>
			</output>
		</layer>
		<layer id="277" name="3002300614752" type="Const" version="opset1">
			<data element_type="f32" offset="178804" shape="" size="4"/>
			<output>
				<port id="0" precision="FP32"/>
			</output>
		</layer>
		<layer id="278" name="Constant_67555516348" type="Const" version="opset1">
			<data element_type="i64" offset="8" shape="1" size="8"/>
			<rt_info>
				<attribute name="fused_names" value="Constant_675" version="0"/>
			</rt_info>
			<output>
				<port id="0" precision="I64">
					<dim>1</dim>
				</port>
			</output>
		</layer>
		<layer id="279" name="4935493914416" type="Const" version="opset1">
			<data element_type="f32" offset="178808" shape="" size="4"/>
			<output>
				<port id="0" precision="FP32"/>
			</output>
		</layer>
		<layer id="280" name="4936494016549" type="Const" version="opset1">
			<data element_type="f32" offset="178812" shape="" size="4"/>
			<output>
				<port id="0" precision="FP32"/>
			</output>
		</layer>
		<layer id="281" name="4937494115397" type="Const" version="opset1">
			<data element_type="f32" offset="178808" shape="" size="4"/>
			<output>
				<port id="0" precision="FP32"/>
			</output>
		</layer>
		<layer id="282" name="4938494216426" type="Const" version="opset1">
			<data element_type="f32" offset="178812" shape="" size="4"/>
			<output>
				<port id="0" precision="FP32"/>
			</output>
		</layer>
		<layer id="283" name="12680/value1268215478" type="Const" version="opset1">
			<data element_type="i64" offset="6424" shape="5" size="40"/>
			<output>
				<port id="0" precision="I64">
					<dim>5</dim>
				</port>
			</output>
		</layer>
		<layer id="284" name="Reshape_5595498502/quantized982314797" type="Const" version="opset1">
			<data element_type="i8" offset="178816" shape="96,1,7,7" size="4704"/>
			<output>
				<port id="0" precision="I8">
					<dim>96</dim>
					<dim>1</dim>
					<dim>7</dim>
					<dim>7</dim>
				</port>
			</output>
		</layer>
		<layer id="285" name="Reshape_5595498502/quantized/to_f32" type="Convert" version="opset1">
			<data destination_type="f32"/>
			<input>
				<port id="0">
					<dim>96</dim>
					<dim>1</dim>
					<dim>7</dim>
					<dim>7</dim>
				</port>
			</input>
			<output>
				<port id="1" precision="FP32">
					<dim>96</dim>
					<dim>1</dim>
					<dim>7</dim>
					<dim>7</dim>
				</port>
			</output>
		</layer>
		<layer id="286" name="Conv_68/WithoutBiases/fq_weights_1/zero_point984216204" type="Const" version="opset1">
			<data element_type="f32" offset="183520" shape="96,1,1,1" size="384"/>
			<output>
				<port id="0" precision="FP32">
					<dim>96</dim>
					<dim>1</dim>
					<dim>1</dim>
					<dim>1</dim>
				</port>
			</output>
		</layer>
		<layer id="287" name="Conv_68/WithoutBiases/fq_weights_1/minus_zp" type="Subtract" version="opset1">
			<data auto_broadcast="numpy"/>
			<input>
				<port id="0">
					<dim>96</dim>
					<dim>1</dim>
					<dim>7</dim>
					<dim>7</dim>
				</port>
				<port id="1">
					<dim>96</dim>
					<dim>1</dim>
					<dim>1</dim>
					<dim>1</dim>
				</port>
			</input>
			<output>
				<port id="2" precision="FP32">
					<dim>96</dim>
					<dim>1</dim>
					<dim>7</dim>
					<dim>7</dim>
				</port>
			</output>
		</layer>
		<layer id="288" name="Conv_68/WithoutBiases/fq_weights_1/scale983115175" type="Const" version="opset1">
			<data element_type="f32" offset="183904" shape="96,1,1,1" size="384"/>
			<output>
				<port id="0" precision="FP32">
					<dim>96</dim>
					<dim>1</dim>
					<dim>1</dim>
					<dim>1</dim>
				</port>
			</output>
		</layer>
		<layer id="289" name="Conv_68/WithoutBiases/fq_weights_1/mulpiply_by_scale" type="Multiply" version="opset1">
			<data auto_broadcast="numpy"/>
			<input>
				<port id="0">
					<dim>96</dim>
					<dim>1</dim>
					<dim>7</dim>
					<dim>7</dim>
				</port>
				<port id="1">
					<dim>96</dim>
					<dim>1</dim>
					<dim>1</dim>
					<dim>1</dim>
				</port>
			</input>
			<output>
				<port id="2" precision="FP32">
					<dim>96</dim>
					<dim>1</dim>
					<dim>7</dim>
					<dim>7</dim>
				</port>
			</output>
		</layer>
		<layer id="290" name="12680" type="Reshape" version="opset1">
			<data special_zero="true"/>
			<input>
				<port id="0">
					<dim>96</dim>
					<dim>1</dim>
					<dim>7</dim>
					<dim>7</dim>
				</port>
				<port id="1">
					<dim>5</dim>
				</port>
			</input>
			<output>
				<port id="2" precision="FP32">
					<dim>96</dim>
					<dim>1</dim>
					<dim>1</dim>
					<dim>7</dim>
					<dim>7</dim>
				</port>
			</output>
		</layer>
		<layer id="291" name="Conv_68/WithoutBiases" type="GroupConvolution" version="opset1">
			<data auto_pad="explicit" dilations="1,1" pads_begin="3,3" pads_end="3,3" strides="1,1"/>
			<rt_info>
				<attribute name="fused_names" value="Conv_68/WithoutBiases, Reshape_559" version="0"/>
			</rt_info>
			<input>
				<port id="0">
					<dim>1</dim>
					<dim>96</dim>
					<dim>56</dim>
					<dim>56</dim>
				</port>
				<port id="1">
					<dim>96</dim>
					<dim>1</dim>
					<dim>1</dim>
					<dim>7</dim>
					<dim>7</dim>
				</port>
			</input>
			<output>
				<port id="2" precision="FP32">
					<dim>1</dim>
					<dim>96</dim>
					<dim>56</dim>
					<dim>56</dim>
				</port>
			</output>
		</layer>
		<layer id="292" name="Reshape_64555115043" type="Const" version="opset1">
			<data element_type="f32" offset="184288" shape="1,96,1,1" size="384"/>
			<output>
				<port id="0" precision="FP32">
					<dim>1</dim>
					<dim>96</dim>
					<dim>1</dim>
					<dim>1</dim>
				</port>
			</output>
		</layer>
		<layer id="293" name="Conv_68" type="Add" version="opset1">
			<data auto_broadcast="numpy"/>
			<rt_info>
				<attribute name="fused_names" value="Concat_644, Conv_68, Reshape_645" version="0"/>
			</rt_info>
			<input>
				<port id="0">
					<dim>1</dim>
					<dim>96</dim>
					<dim>56</dim>
					<dim>56</dim>
				</port>
				<port id="1">
					<dim>1</dim>
					<dim>96</dim>
					<dim>1</dim>
					<dim>1</dim>
				</port>
			</input>
			<output>
				<port id="2" names="261" precision="FP32">
					<dim>1</dim>
					<dim>96</dim>
					<dim>56</dim>
					<dim>56</dim>
				</port>
			</output>
		</layer>
		<layer id="294" name="Transpose_69/fq_input_0" type="FakeQuantize" version="opset1">
			<data auto_broadcast="numpy" levels="256"/>
			<input>
				<port id="0">
					<dim>1</dim>
					<dim>96</dim>
					<dim>56</dim>
					<dim>56</dim>
				</port>
				<port id="1"/>
				<port id="2"/>
				<port id="3"/>
				<port id="4"/>
			</input>
			<output>
				<port id="5" precision="FP32">
					<dim>1</dim>
					<dim>96</dim>
					<dim>56</dim>
					<dim>56</dim>
				</port>
			</output>
		</layer>
		<layer id="295" name="Constant_673553" type="Const" version="opset1">
			<data element_type="i64" offset="12320" shape="4" size="32"/>
			<rt_info>
				<attribute name="fused_names" value="Constant_673" version="0"/>
			</rt_info>
			<output>
				<port id="0" precision="I64">
					<dim>4</dim>
				</port>
			</output>
		</layer>
		<layer id="296" name="Transpose_69" type="Transpose" version="opset1">
			<rt_info>
				<attribute name="fused_names" value="Transpose_69" version="0"/>
			</rt_info>
			<input>
				<port id="0">
					<dim>1</dim>
					<dim>96</dim>
					<dim>56</dim>
					<dim>56</dim>
				</port>
				<port id="1">
					<dim>4</dim>
				</port>
			</input>
			<output>
				<port id="2" names="262" precision="FP32">
					<dim>1</dim>
					<dim>56</dim>
					<dim>56</dim>
					<dim>96</dim>
				</port>
			</output>
		</layer>
		<layer id="297" name="Div_78" type="MVN" version="opset6">
			<data eps="9.999999974752427e-07" eps_mode="INSIDE_SQRT" normalize_variance="true"/>
			<rt_info>
				<attribute name="fused_names" value="Add_76, Div_78, Pow_73, ReduceMean_70, ReduceMean_74, Sqrt_77, Sub_71" version="0"/>
			</rt_info>
			<input>
				<port id="0">
					<dim>1</dim>
					<dim>56</dim>
					<dim>56</dim>
					<dim>96</dim>
				</port>
				<port id="1">
					<dim>1</dim>
				</port>
			</input>
			<output>
				<port id="2" names="271" precision="FP32">
					<dim>1</dim>
					<dim>56</dim>
					<dim>56</dim>
					<dim>96</dim>
				</port>
			</output>
		</layer>
		<layer id="298" name="Constant_702355715904" type="Const" version="opset1">
			<data element_type="f32" offset="184672" shape="1,1,1,96" size="384"/>
			<output>
				<port id="0" precision="FP32">
					<dim>1</dim>
					<dim>1</dim>
					<dim>1</dim>
					<dim>96</dim>
				</port>
			</output>
		</layer>
		<layer id="299" name="Mul_79" type="Multiply" version="opset1">
			<data auto_broadcast="numpy"/>
			<rt_info>
				<attribute name="fused_names" value="Mul_79" version="0"/>
			</rt_info>
			<input>
				<port id="0">
					<dim>1</dim>
					<dim>56</dim>
					<dim>56</dim>
					<dim>96</dim>
				</port>
				<port id="1">
					<dim>1</dim>
					<dim>1</dim>
					<dim>1</dim>
					<dim>96</dim>
				</port>
			</input>
			<output>
				<port id="2" names="272" precision="FP32">
					<dim>1</dim>
					<dim>56</dim>
					<dim>56</dim>
					<dim>96</dim>
				</port>
			</output>
		</layer>
		<layer id="300" name="Constant_702455914392" type="Const" version="opset1">
			<data element_type="f32" offset="185056" shape="1,1,1,96" size="384"/>
			<output>
				<port id="0" precision="FP32">
					<dim>1</dim>
					<dim>1</dim>
					<dim>1</dim>
					<dim>96</dim>
				</port>
			</output>
		</layer>
		<layer id="301" name="Add_80" type="Add" version="opset1">
			<data auto_broadcast="numpy"/>
			<rt_info>
				<attribute name="fused_names" value="Add_80" version="0"/>
			</rt_info>
			<input>
				<port id="0">
					<dim>1</dim>
					<dim>56</dim>
					<dim>56</dim>
					<dim>96</dim>
				</port>
				<port id="1">
					<dim>1</dim>
					<dim>1</dim>
					<dim>1</dim>
					<dim>96</dim>
				</port>
			</input>
			<output>
				<port id="2" names="273" precision="FP32">
					<dim>1</dim>
					<dim>56</dim>
					<dim>56</dim>
					<dim>96</dim>
				</port>
			</output>
		</layer>
		<layer id="302" name="MatMul_81/fq_input_0" type="FakeQuantize" version="opset1">
			<data auto_broadcast="numpy" levels="256"/>
			<input>
				<port id="0">
					<dim>1</dim>
					<dim>56</dim>
					<dim>56</dim>
					<dim>96</dim>
				</port>
				<port id="1"/>
				<port id="2"/>
				<port id="3"/>
				<port id="4"/>
			</input>
			<output>
				<port id="5" precision="FP32">
					<dim>1</dim>
					<dim>56</dim>
					<dim>56</dim>
					<dim>96</dim>
				</port>
			</output>
		</layer>
		<layer id="303" name="Constant_63055618508/quantized1096316555" type="Const" version="opset1">
			<data element_type="i8" offset="185440" shape="384,96" size="36864"/>
			<output>
				<port id="0" precision="I8">
					<dim>384</dim>
					<dim>96</dim>
				</port>
			</output>
		</layer>
		<layer id="304" name="Constant_63055618508/quantized/to_f32" type="Convert" version="opset1">
			<data destination_type="f32"/>
			<input>
				<port id="0">
					<dim>384</dim>
					<dim>96</dim>
				</port>
			</input>
			<output>
				<port id="1" precision="FP32">
					<dim>384</dim>
					<dim>96</dim>
				</port>
			</output>
		</layer>
		<layer id="305" name="MatMul_81/fq_weights_1/zero_point1098214806" type="Const" version="opset1">
			<data element_type="f32" offset="222304" shape="384,1" size="1536"/>
			<output>
				<port id="0" precision="FP32">
					<dim>384</dim>
					<dim>1</dim>
				</port>
			</output>
		</layer>
		<layer id="306" name="MatMul_81/fq_weights_1/minus_zp" type="Subtract" version="opset1">
			<data auto_broadcast="numpy"/>
			<input>
				<port id="0">
					<dim>384</dim>
					<dim>96</dim>
				</port>
				<port id="1">
					<dim>384</dim>
					<dim>1</dim>
				</port>
			</input>
			<output>
				<port id="2" precision="FP32">
					<dim>384</dim>
					<dim>96</dim>
				</port>
			</output>
		</layer>
		<layer id="307" name="MatMul_81/fq_weights_1/scale1097115928" type="Const" version="opset1">
			<data element_type="f32" offset="223840" shape="384,1" size="1536"/>
			<output>
				<port id="0" precision="FP32">
					<dim>384</dim>
					<dim>1</dim>
				</port>
			</output>
		</layer>
		<layer id="308" name="MatMul_81/fq_weights_1/mulpiply_by_scale" type="Multiply" version="opset1">
			<data auto_broadcast="numpy"/>
			<input>
				<port id="0">
					<dim>384</dim>
					<dim>96</dim>
				</port>
				<port id="1">
					<dim>384</dim>
					<dim>1</dim>
				</port>
			</input>
			<output>
				<port id="2" precision="FP32">
					<dim>384</dim>
					<dim>96</dim>
				</port>
			</output>
		</layer>
		<layer id="309" name="MatMul_81" type="MatMul" version="opset1">
			<data transpose_a="false" transpose_b="true"/>
			<rt_info>
				<attribute name="fused_names" value="817, MatMul_81" version="0"/>
			</rt_info>
			<input>
				<port id="0">
					<dim>1</dim>
					<dim>56</dim>
					<dim>56</dim>
					<dim>96</dim>
				</port>
				<port id="1">
					<dim>384</dim>
					<dim>96</dim>
				</port>
			</input>
			<output>
				<port id="2" names="275" precision="FP32">
					<dim>1</dim>
					<dim>56</dim>
					<dim>56</dim>
					<dim>384</dim>
				</port>
			</output>
		</layer>
		<layer id="310" name="Constant_702556314299" type="Const" version="opset1">
			<data element_type="f32" offset="225376" shape="1,1,1,384" size="1536"/>
			<output>
				<port id="0" precision="FP32">
					<dim>1</dim>
					<dim>1</dim>
					<dim>1</dim>
					<dim>384</dim>
				</port>
			</output>
		</layer>
		<layer id="311" name="Add_82" type="Add" version="opset1">
			<data auto_broadcast="numpy"/>
			<rt_info>
				<attribute name="fused_names" value="Add_82" version="0"/>
			</rt_info>
			<input>
				<port id="0">
					<dim>1</dim>
					<dim>56</dim>
					<dim>56</dim>
					<dim>384</dim>
				</port>
				<port id="1">
					<dim>1</dim>
					<dim>1</dim>
					<dim>1</dim>
					<dim>384</dim>
				</port>
			</input>
			<output>
				<port id="2" names="276" precision="FP32">
					<dim>1</dim>
					<dim>56</dim>
					<dim>56</dim>
					<dim>384</dim>
				</port>
			</output>
		</layer>
		<layer id="312" name="Mul_90" type="Gelu" version="opset7">
			<data approximation_mode="ERF"/>
			<rt_info>
				<attribute name="fused_names" value="Add_87, Div_84, Erf_85, Mul_88, Mul_90" version="0"/>
			</rt_info>
			<input>
				<port id="0">
					<dim>1</dim>
					<dim>56</dim>
					<dim>56</dim>
					<dim>384</dim>
				</port>
			</input>
			<output>
				<port id="1" names="284" precision="FP32">
					<dim>1</dim>
					<dim>56</dim>
					<dim>56</dim>
					<dim>384</dim>
				</port>
			</output>
		</layer>
		<layer id="313" name="Multiply_6567/fq_input_0" type="FakeQuantize" version="opset1">
			<data auto_broadcast="numpy" levels="256"/>
			<input>
				<port id="0">
					<dim>1</dim>
					<dim>56</dim>
					<dim>56</dim>
					<dim>384</dim>
				</port>
				<port id="1"/>
				<port id="2"/>
				<port id="3"/>
				<port id="4"/>
			</input>
			<output>
				<port id="5" precision="FP32">
					<dim>1</dim>
					<dim>56</dim>
					<dim>56</dim>
					<dim>384</dim>
				</port>
			</output>
		</layer>
		<layer id="314" name="Constant_66865668510/quantized1078316138" type="Const" version="opset1">
			<data element_type="i8" offset="226912" shape="96,384" size="36864"/>
			<output>
				<port id="0" precision="I8">
					<dim>96</dim>
					<dim>384</dim>
				</port>
			</output>
		</layer>
		<layer id="315" name="Constant_66865668510/quantized/to_f32" type="Convert" version="opset1">
			<data destination_type="f32"/>
			<input>
				<port id="0">
					<dim>96</dim>
					<dim>384</dim>
				</port>
			</input>
			<output>
				<port id="1" precision="FP32">
					<dim>96</dim>
					<dim>384</dim>
				</port>
			</output>
		</layer>
		<layer id="316" name="Multiply_6567/fq_weights_1/zero_point1080215334" type="Const" version="opset1">
			<data element_type="f32" offset="263776" shape="96,1" size="384"/>
			<output>
				<port id="0" precision="FP32">
					<dim>96</dim>
					<dim>1</dim>
				</port>
			</output>
		</layer>
		<layer id="317" name="Multiply_6567/fq_weights_1/minus_zp" type="Subtract" version="opset1">
			<data auto_broadcast="numpy"/>
			<input>
				<port id="0">
					<dim>96</dim>
					<dim>384</dim>
				</port>
				<port id="1">
					<dim>96</dim>
					<dim>1</dim>
				</port>
			</input>
			<output>
				<port id="2" precision="FP32">
					<dim>96</dim>
					<dim>384</dim>
				</port>
			</output>
		</layer>
		<layer id="318" name="Multiply_6567/fq_weights_1/scale1079115322" type="Const" version="opset1">
			<data element_type="f32" offset="264160" shape="96,1" size="384"/>
			<output>
				<port id="0" precision="FP32">
					<dim>96</dim>
					<dim>1</dim>
				</port>
			</output>
		</layer>
		<layer id="319" name="Multiply_6567/fq_weights_1/mulpiply_by_scale" type="Multiply" version="opset1">
			<data auto_broadcast="numpy"/>
			<input>
				<port id="0">
					<dim>96</dim>
					<dim>384</dim>
				</port>
				<port id="1">
					<dim>96</dim>
					<dim>1</dim>
				</port>
			</input>
			<output>
				<port id="2" precision="FP32">
					<dim>96</dim>
					<dim>384</dim>
				</port>
			</output>
		</layer>
		<layer id="320" name="Multiply_6567" type="MatMul" version="opset1">
			<data transpose_a="false" transpose_b="true"/>
			<rt_info>
				<attribute name="fused_names" value="818, Add_92, MatMul_91, Mul_93, stages.0.2.gamma" version="0"/>
			</rt_info>
			<input>
				<port id="0">
					<dim>1</dim>
					<dim>56</dim>
					<dim>56</dim>
					<dim>384</dim>
				</port>
				<port id="1">
					<dim>96</dim>
					<dim>384</dim>
				</port>
			</input>
			<output>
				<port id="2" precision="FP32">
					<dim>1</dim>
					<dim>56</dim>
					<dim>56</dim>
					<dim>96</dim>
				</port>
			</output>
		</layer>
		<layer id="321" name="Constant_702656815544" type="Const" version="opset1">
			<data element_type="f32" offset="264544" shape="1,1,1,96" size="384"/>
			<output>
				<port id="0" precision="FP32">
					<dim>1</dim>
					<dim>1</dim>
					<dim>1</dim>
					<dim>96</dim>
				</port>
			</output>
		</layer>
		<layer id="322" name="Mul_93" type="Add" version="opset1">
			<data auto_broadcast="numpy"/>
			<rt_info>
				<attribute name="fused_names" value="Add_92, Mul_93" version="0"/>
			</rt_info>
			<input>
				<port id="0">
					<dim>1</dim>
					<dim>56</dim>
					<dim>56</dim>
					<dim>96</dim>
				</port>
				<port id="1">
					<dim>1</dim>
					<dim>1</dim>
					<dim>1</dim>
					<dim>96</dim>
				</port>
			</input>
			<output>
				<port id="2" names="288" precision="FP32">
					<dim>1</dim>
					<dim>56</dim>
					<dim>56</dim>
					<dim>96</dim>
				</port>
			</output>
		</layer>
		<layer id="323" name="Transpose_94/fq_input_0" type="FakeQuantize" version="opset1">
			<data auto_broadcast="numpy" levels="256"/>
			<input>
				<port id="0">
					<dim>1</dim>
					<dim>56</dim>
					<dim>56</dim>
					<dim>96</dim>
				</port>
				<port id="1"/>
				<port id="2"/>
				<port id="3"/>
				<port id="4"/>
			</input>
			<output>
				<port id="5" precision="FP32">
					<dim>1</dim>
					<dim>56</dim>
					<dim>56</dim>
					<dim>96</dim>
				</port>
			</output>
		</layer>
		<layer id="324" name="Constant_701570" type="Const" version="opset1">
			<data element_type="i64" offset="92608" shape="4" size="32"/>
			<rt_info>
				<attribute name="fused_names" value="Constant_701" version="0"/>
			</rt_info>
			<output>
				<port id="0" precision="I64">
					<dim>4</dim>
				</port>
			</output>
		</layer>
		<layer id="325" name="Transpose_94" type="Transpose" version="opset1">
			<rt_info>
				<attribute name="fused_names" value="Transpose_94" version="0"/>
			</rt_info>
			<input>
				<port id="0">
					<dim>1</dim>
					<dim>56</dim>
					<dim>56</dim>
					<dim>96</dim>
				</port>
				<port id="1">
					<dim>4</dim>
				</port>
			</input>
			<output>
				<port id="2" names="289" precision="FP32">
					<dim>1</dim>
					<dim>96</dim>
					<dim>56</dim>
					<dim>56</dim>
				</port>
			</output>
		</layer>
		<layer id="326" name="Add_95" type="Add" version="opset1">
			<data auto_broadcast="numpy"/>
			<rt_info>
				<attribute name="fused_names" value="Add_95" version="0"/>
			</rt_info>
			<input>
				<port id="0">
					<dim>1</dim>
					<dim>96</dim>
					<dim>56</dim>
					<dim>56</dim>
				</port>
				<port id="1">
					<dim>1</dim>
					<dim>96</dim>
					<dim>56</dim>
					<dim>56</dim>
				</port>
			</input>
			<output>
				<port id="2" names="290" precision="FP32">
					<dim>1</dim>
					<dim>96</dim>
					<dim>56</dim>
					<dim>56</dim>
				</port>
			</output>
		</layer>
		<layer id="327" name="Div_104/fq_input_0" type="FakeQuantize" version="opset1">
			<data auto_broadcast="numpy" levels="256"/>
			<input>
				<port id="0">
					<dim>1</dim>
					<dim>96</dim>
					<dim>56</dim>
					<dim>56</dim>
				</port>
				<port id="1"/>
				<port id="2"/>
				<port id="3"/>
				<port id="4"/>
			</input>
			<output>
				<port id="5" precision="FP32">
					<dim>1</dim>
					<dim>96</dim>
					<dim>56</dim>
					<dim>56</dim>
				</port>
			</output>
		</layer>
		<layer id="328" name="Div_104" type="MVN" version="opset6">
			<data eps="9.999999974752427e-07" eps_mode="INSIDE_SQRT" normalize_variance="true"/>
			<rt_info>
				<attribute name="fused_names" value="Add_102, Div_104, Pow_98, ReduceMean_96, ReduceMean_99, Sqrt_103, Sub_97" version="0"/>
			</rt_info>
			<input>
				<port id="0">
					<dim>1</dim>
					<dim>96</dim>
					<dim>56</dim>
					<dim>56</dim>
				</port>
				<port id="1">
					<dim>1</dim>
				</port>
			</input>
			<output>
				<port id="2" names="301" precision="FP32">
					<dim>1</dim>
					<dim>96</dim>
					<dim>56</dim>
					<dim>56</dim>
				</port>
			</output>
		</layer>
		<layer id="329" name="Mul_105" type="Multiply" version="opset1">
			<data auto_broadcast="numpy"/>
			<rt_info>
				<attribute name="fused_names" value="Mul_105" version="0"/>
			</rt_info>
			<input>
				<port id="0">
					<dim>1</dim>
					<dim>96</dim>
					<dim>1</dim>
					<dim>1</dim>
				</port>
				<port id="1">
					<dim>1</dim>
					<dim>96</dim>
					<dim>56</dim>
					<dim>56</dim>
				</port>
			</input>
			<output>
				<port id="2" names="304" precision="FP32">
					<dim>1</dim>
					<dim>96</dim>
					<dim>56</dim>
					<dim>56</dim>
				</port>
			</output>
		</layer>
		<layer id="330" name="Constant_702857614677" type="Const" version="opset1">
			<data element_type="f32" offset="264928" shape="1,96,1,1" size="384"/>
			<output>
				<port id="0" precision="FP32">
					<dim>1</dim>
					<dim>96</dim>
					<dim>1</dim>
					<dim>1</dim>
				</port>
			</output>
		</layer>
		<layer id="331" name="Add_106" type="Add" version="opset1">
			<data auto_broadcast="numpy"/>
			<rt_info>
				<attribute name="fused_names" value="Add_106" version="0"/>
			</rt_info>
			<input>
				<port id="0">
					<dim>1</dim>
					<dim>96</dim>
					<dim>56</dim>
					<dim>56</dim>
				</port>
				<port id="1">
					<dim>1</dim>
					<dim>96</dim>
					<dim>1</dim>
					<dim>1</dim>
				</port>
			</input>
			<output>
				<port id="2" names="307" precision="FP32">
					<dim>1</dim>
					<dim>96</dim>
					<dim>56</dim>
					<dim>56</dim>
				</port>
			</output>
		</layer>
		<layer id="332" name="Conv_107/WithoutBiases/fq_input_0" type="FakeQuantize" version="opset1">
			<data auto_broadcast="numpy" levels="256"/>
			<input>
				<port id="0">
					<dim>1</dim>
					<dim>96</dim>
					<dim>56</dim>
					<dim>56</dim>
				</port>
				<port id="1"/>
				<port id="2"/>
				<port id="3"/>
				<port id="4"/>
			</input>
			<output>
				<port id="5" precision="FP32">
					<dim>1</dim>
					<dim>96</dim>
					<dim>56</dim>
					<dim>56</dim>
				</port>
			</output>
		</layer>
		<layer id="333" name="downsample_layers.1.1.weight5788515/quantized1000316561" type="Const" version="opset1">
			<data element_type="i8" offset="265312" shape="192,96,2,2" size="73728"/>
			<output>
				<port id="0" precision="I8">
					<dim>192</dim>
					<dim>96</dim>
					<dim>2</dim>
					<dim>2</dim>
				</port>
			</output>
		</layer>
		<layer id="334" name="downsample_layers.1.1.weight5788515/quantized/to_f32" type="Convert" version="opset1">
			<data destination_type="f32"/>
			<input>
				<port id="0">
					<dim>192</dim>
					<dim>96</dim>
					<dim>2</dim>
					<dim>2</dim>
				</port>
			</input>
			<output>
				<port id="1" precision="FP32">
					<dim>192</dim>
					<dim>96</dim>
					<dim>2</dim>
					<dim>2</dim>
				</port>
			</output>
		</layer>
		<layer id="335" name="Conv_107/WithoutBiases/fq_weights_1/zero_point1002215232" type="Const" version="opset1">
			<data element_type="f32" offset="339040" shape="192,1,1,1" size="768"/>
			<output>
				<port id="0" precision="FP32">
					<dim>192</dim>
					<dim>1</dim>
					<dim>1</dim>
					<dim>1</dim>
				</port>
			</output>
		</layer>
		<layer id="336" name="Conv_107/WithoutBiases/fq_weights_1/minus_zp" type="Subtract" version="opset1">
			<data auto_broadcast="numpy"/>
			<input>
				<port id="0">
					<dim>192</dim>
					<dim>96</dim>
					<dim>2</dim>
					<dim>2</dim>
				</port>
				<port id="1">
					<dim>192</dim>
					<dim>1</dim>
					<dim>1</dim>
					<dim>1</dim>
				</port>
			</input>
			<output>
				<port id="2" precision="FP32">
					<dim>192</dim>
					<dim>96</dim>
					<dim>2</dim>
					<dim>2</dim>
				</port>
			</output>
		</layer>
		<layer id="337" name="Conv_107/WithoutBiases/fq_weights_1/scale1001115763" type="Const" version="opset1">
			<data element_type="f32" offset="339808" shape="192,1,1,1" size="768"/>
			<output>
				<port id="0" precision="FP32">
					<dim>192</dim>
					<dim>1</dim>
					<dim>1</dim>
					<dim>1</dim>
				</port>
			</output>
		</layer>
		<layer id="338" name="Conv_107/WithoutBiases/fq_weights_1/mulpiply_by_scale" type="Multiply" version="opset1">
			<data auto_broadcast="numpy"/>
			<input>
				<port id="0">
					<dim>192</dim>
					<dim>96</dim>
					<dim>2</dim>
					<dim>2</dim>
				</port>
				<port id="1">
					<dim>192</dim>
					<dim>1</dim>
					<dim>1</dim>
					<dim>1</dim>
				</port>
			</input>
			<output>
				<port id="2" precision="FP32">
					<dim>192</dim>
					<dim>96</dim>
					<dim>2</dim>
					<dim>2</dim>
				</port>
			</output>
		</layer>
		<layer id="339" name="Conv_107/WithoutBiases" type="Convolution" version="opset1">
			<data auto_pad="explicit" dilations="1,1" pads_begin="0,0" pads_end="0,0" strides="2,2"/>
			<rt_info>
				<attribute name="fused_names" value="Conv_107/WithoutBiases" version="0"/>
			</rt_info>
			<input>
				<port id="0">
					<dim>1</dim>
					<dim>96</dim>
					<dim>56</dim>
					<dim>56</dim>
				</port>
				<port id="1">
					<dim>192</dim>
					<dim>96</dim>
					<dim>2</dim>
					<dim>2</dim>
				</port>
			</input>
			<output>
				<port id="2" precision="FP32">
					<dim>1</dim>
					<dim>192</dim>
					<dim>28</dim>
					<dim>28</dim>
				</port>
			</output>
		</layer>
		<layer id="340" name="Reshape_73758015961" type="Const" version="opset1">
			<data element_type="f32" offset="340576" shape="1,192,1,1" size="768"/>
			<output>
				<port id="0" precision="FP32">
					<dim>1</dim>
					<dim>192</dim>
					<dim>1</dim>
					<dim>1</dim>
				</port>
			</output>
		</layer>
		<layer id="341" name="Conv_107" type="Add" version="opset1">
			<data auto_broadcast="numpy"/>
			<rt_info>
				<attribute name="fused_names" value="Concat_736, Conv_107, Reshape_737" version="0"/>
			</rt_info>
			<input>
				<port id="0">
					<dim>1</dim>
					<dim>192</dim>
					<dim>28</dim>
					<dim>28</dim>
				</port>
				<port id="1">
					<dim>1</dim>
					<dim>192</dim>
					<dim>1</dim>
					<dim>1</dim>
				</port>
			</input>
			<output>
				<port id="2" names="308" precision="FP32">
					<dim>1</dim>
					<dim>192</dim>
					<dim>28</dim>
					<dim>28</dim>
				</port>
			</output>
		</layer>
		<layer id="342" name="Add_135/fq_input_0" type="FakeQuantize" version="opset1">
			<data auto_broadcast="numpy" levels="256"/>
			<input>
				<port id="0">
					<dim>1</dim>
					<dim>192</dim>
					<dim>28</dim>
					<dim>28</dim>
				</port>
				<port id="1"/>
				<port id="2"/>
				<port id="3"/>
				<port id="4"/>
			</input>
			<output>
				<port id="5" precision="FP32">
					<dim>1</dim>
					<dim>192</dim>
					<dim>28</dim>
					<dim>28</dim>
				</port>
			</output>
		</layer>
		<layer id="343" name="4585458915442" type="Const" version="opset1">
			<data element_type="f32" offset="341344" shape="" size="4"/>
			<output>
				<port id="0" precision="FP32"/>
			</output>
		</layer>
		<layer id="344" name="4586459016351" type="Const" version="opset1">
			<data element_type="f32" offset="341348" shape="" size="4"/>
			<output>
				<port id="0" precision="FP32"/>
			</output>
		</layer>
		<layer id="345" name="4587459116501" type="Const" version="opset1">
			<data element_type="f32" offset="341344" shape="" size="4"/>
			<output>
				<port id="0" precision="FP32"/>
			</output>
		</layer>
		<layer id="346" name="4588459215490" type="Const" version="opset1">
			<data element_type="f32" offset="341348" shape="" size="4"/>
			<output>
				<port id="0" precision="FP32"/>
			</output>
		</layer>
		<layer id="347" name="3189319315277" type="Const" version="opset1">
			<data element_type="f32" offset="341352" shape="" size="4"/>
			<output>
				<port id="0" precision="FP32"/>
			</output>
		</layer>
		<layer id="348" name="3190319414596" type="Const" version="opset1">
			<data element_type="f32" offset="341356" shape="" size="4"/>
			<output>
				<port id="0" precision="FP32"/>
			</output>
		</layer>
		<layer id="349" name="3191319515754" type="Const" version="opset1">
			<data element_type="f32" offset="341352" shape="" size="4"/>
			<output>
				<port id="0" precision="FP32"/>
			</output>
		</layer>
		<layer id="350" name="3192319614731" type="Const" version="opset1">
			<data element_type="f32" offset="341356" shape="" size="4"/>
			<output>
				<port id="0" precision="FP32"/>
			</output>
		</layer>
		<layer id="351" name="2369237314635" type="Const" version="opset1">
			<data element_type="f32" offset="341360" shape="" size="4"/>
			<output>
				<port id="0" precision="FP32"/>
			</output>
		</layer>
		<layer id="352" name="2370237414674" type="Const" version="opset1">
			<data element_type="f32" offset="341364" shape="" size="4"/>
			<output>
				<port id="0" precision="FP32"/>
			</output>
		</layer>
		<layer id="353" name="2371237514935" type="Const" version="opset1">
			<data element_type="f32" offset="341360" shape="" size="4"/>
			<output>
				<port id="0" precision="FP32"/>
			</output>
		</layer>
		<layer id="354" name="2372237614683" type="Const" version="opset1">
			<data element_type="f32" offset="341364" shape="" size="4"/>
			<output>
				<port id="0" precision="FP32"/>
			</output>
		</layer>
		<layer id="355" name="Constant_88858814539" type="Const" version="opset1">
			<data element_type="i64" offset="8" shape="1" size="8"/>
			<rt_info>
				<attribute name="fused_names" value="Constant_888" version="0"/>
			</rt_info>
			<output>
				<port id="0" precision="I64">
					<dim>1</dim>
				</port>
			</output>
		</layer>
		<layer id="356" name="4765476915562" type="Const" version="opset1">
			<data element_type="f32" offset="341368" shape="" size="4"/>
			<output>
				<port id="0" precision="FP32"/>
			</output>
		</layer>
		<layer id="357" name="4766477015901" type="Const" version="opset1">
			<data element_type="f32" offset="341372" shape="" size="4"/>
			<output>
				<port id="0" precision="FP32"/>
			</output>
		</layer>
		<layer id="358" name="4767477115205" type="Const" version="opset1">
			<data element_type="f32" offset="341368" shape="" size="4"/>
			<output>
				<port id="0" precision="FP32"/>
			</output>
		</layer>
		<layer id="359" name="4768477216483" type="Const" version="opset1">
			<data element_type="f32" offset="341372" shape="" size="4"/>
			<output>
				<port id="0" precision="FP32"/>
			</output>
		</layer>
		<layer id="360" name="12684/value1268616054" type="Const" version="opset1">
			<data element_type="i64" offset="341376" shape="5" size="40"/>
			<output>
				<port id="0" precision="I64">
					<dim>5</dim>
				</port>
			</output>
		</layer>
		<layer id="361" name="Reshape_7725828517/quantized973316171" type="Const" version="opset1">
			<data element_type="i8" offset="341416" shape="192,1,7,7" size="9408"/>
			<output>
				<port id="0" precision="I8">
					<dim>192</dim>
					<dim>1</dim>
					<dim>7</dim>
					<dim>7</dim>
				</port>
			</output>
		</layer>
		<layer id="362" name="Reshape_7725828517/quantized/to_f32" type="Convert" version="opset1">
			<data destination_type="f32"/>
			<input>
				<port id="0">
					<dim>192</dim>
					<dim>1</dim>
					<dim>7</dim>
					<dim>7</dim>
				</port>
			</input>
			<output>
				<port id="1" precision="FP32">
					<dim>192</dim>
					<dim>1</dim>
					<dim>7</dim>
					<dim>7</dim>
				</port>
			</output>
		</layer>
		<layer id="363" name="Conv_108/WithoutBiases/fq_weights_1/zero_point975214386" type="Const" version="opset1">
			<data element_type="f32" offset="350824" shape="192,1,1,1" size="768"/>
			<output>
				<port id="0" precision="FP32">
					<dim>192</dim>
					<dim>1</dim>
					<dim>1</dim>
					<dim>1</dim>
				</port>
			</output>
		</layer>
		<layer id="364" name="Conv_108/WithoutBiases/fq_weights_1/minus_zp" type="Subtract" version="opset1">
			<data auto_broadcast="numpy"/>
			<input>
				<port id="0">
					<dim>192</dim>
					<dim>1</dim>
					<dim>7</dim>
					<dim>7</dim>
				</port>
				<port id="1">
					<dim>192</dim>
					<dim>1</dim>
					<dim>1</dim>
					<dim>1</dim>
				</port>
			</input>
			<output>
				<port id="2" precision="FP32">
					<dim>192</dim>
					<dim>1</dim>
					<dim>7</dim>
					<dim>7</dim>
				</port>
			</output>
		</layer>
		<layer id="365" name="Conv_108/WithoutBiases/fq_weights_1/scale974114455" type="Const" version="opset1">
			<data element_type="f32" offset="351592" shape="192,1,1,1" size="768"/>
			<output>
				<port id="0" precision="FP32">
					<dim>192</dim>
					<dim>1</dim>
					<dim>1</dim>
					<dim>1</dim>
				</port>
			</output>
		</layer>
		<layer id="366" name="Conv_108/WithoutBiases/fq_weights_1/mulpiply_by_scale" type="Multiply" version="opset1">
			<data auto_broadcast="numpy"/>
			<input>
				<port id="0">
					<dim>192</dim>
					<dim>1</dim>
					<dim>7</dim>
					<dim>7</dim>
				</port>
				<port id="1">
					<dim>192</dim>
					<dim>1</dim>
					<dim>1</dim>
					<dim>1</dim>
				</port>
			</input>
			<output>
				<port id="2" precision="FP32">
					<dim>192</dim>
					<dim>1</dim>
					<dim>7</dim>
					<dim>7</dim>
				</port>
			</output>
		</layer>
		<layer id="367" name="12684" type="Reshape" version="opset1">
			<data special_zero="true"/>
			<input>
				<port id="0">
					<dim>192</dim>
					<dim>1</dim>
					<dim>7</dim>
					<dim>7</dim>
				</port>
				<port id="1">
					<dim>5</dim>
				</port>
			</input>
			<output>
				<port id="2" precision="FP32">
					<dim>192</dim>
					<dim>1</dim>
					<dim>1</dim>
					<dim>7</dim>
					<dim>7</dim>
				</port>
			</output>
		</layer>
		<layer id="368" name="Conv_108/WithoutBiases" type="GroupConvolution" version="opset1">
			<data auto_pad="explicit" dilations="1,1" pads_begin="3,3" pads_end="3,3" strides="1,1"/>
			<rt_info>
				<attribute name="fused_names" value="Conv_108/WithoutBiases, Reshape_772" version="0"/>
			</rt_info>
			<input>
				<port id="0">
					<dim>1</dim>
					<dim>192</dim>
					<dim>28</dim>
					<dim>28</dim>
				</port>
				<port id="1">
					<dim>192</dim>
					<dim>1</dim>
					<dim>1</dim>
					<dim>7</dim>
					<dim>7</dim>
				</port>
			</input>
			<output>
				<port id="2" precision="FP32">
					<dim>1</dim>
					<dim>192</dim>
					<dim>28</dim>
					<dim>28</dim>
				</port>
			</output>
		</layer>
		<layer id="369" name="Reshape_85858414965" type="Const" version="opset1">
			<data element_type="f32" offset="352360" shape="1,192,1,1" size="768"/>
			<output>
				<port id="0" precision="FP32">
					<dim>1</dim>
					<dim>192</dim>
					<dim>1</dim>
					<dim>1</dim>
				</port>
			</output>
		</layer>
		<layer id="370" name="Conv_108" type="Add" version="opset1">
			<data auto_broadcast="numpy"/>
			<rt_info>
				<attribute name="fused_names" value="Concat_857, Conv_108, Reshape_858" version="0"/>
			</rt_info>
			<input>
				<port id="0">
					<dim>1</dim>
					<dim>192</dim>
					<dim>28</dim>
					<dim>28</dim>
				</port>
				<port id="1">
					<dim>1</dim>
					<dim>192</dim>
					<dim>1</dim>
					<dim>1</dim>
				</port>
			</input>
			<output>
				<port id="2" names="309" precision="FP32">
					<dim>1</dim>
					<dim>192</dim>
					<dim>28</dim>
					<dim>28</dim>
				</port>
			</output>
		</layer>
		<layer id="371" name="Transpose_109/fq_input_0" type="FakeQuantize" version="opset1">
			<data auto_broadcast="numpy" levels="256"/>
			<input>
				<port id="0">
					<dim>1</dim>
					<dim>192</dim>
					<dim>28</dim>
					<dim>28</dim>
				</port>
				<port id="1"/>
				<port id="2"/>
				<port id="3"/>
				<port id="4"/>
			</input>
			<output>
				<port id="5" precision="FP32">
					<dim>1</dim>
					<dim>192</dim>
					<dim>28</dim>
					<dim>28</dim>
				</port>
			</output>
		</layer>
		<layer id="372" name="Constant_886586" type="Const" version="opset1">
			<data element_type="i64" offset="12320" shape="4" size="32"/>
			<rt_info>
				<attribute name="fused_names" value="Constant_886" version="0"/>
			</rt_info>
			<output>
				<port id="0" precision="I64">
					<dim>4</dim>
				</port>
			</output>
		</layer>
		<layer id="373" name="Transpose_109" type="Transpose" version="opset1">
			<rt_info>
				<attribute name="fused_names" value="Transpose_109" version="0"/>
			</rt_info>
			<input>
				<port id="0">
					<dim>1</dim>
					<dim>192</dim>
					<dim>28</dim>
					<dim>28</dim>
				</port>
				<port id="1">
					<dim>4</dim>
				</port>
			</input>
			<output>
				<port id="2" names="310" precision="FP32">
					<dim>1</dim>
					<dim>28</dim>
					<dim>28</dim>
					<dim>192</dim>
				</port>
			</output>
		</layer>
		<layer id="374" name="Div_118" type="MVN" version="opset6">
			<data eps="9.999999974752427e-07" eps_mode="INSIDE_SQRT" normalize_variance="true"/>
			<rt_info>
				<attribute name="fused_names" value="Add_116, Div_118, Pow_113, ReduceMean_110, ReduceMean_114, Sqrt_117, Sub_111" version="0"/>
			</rt_info>
			<input>
				<port id="0">
					<dim>1</dim>
					<dim>28</dim>
					<dim>28</dim>
					<dim>192</dim>
				</port>
				<port id="1">
					<dim>1</dim>
				</port>
			</input>
			<output>
				<port id="2" names="319" precision="FP32">
					<dim>1</dim>
					<dim>28</dim>
					<dim>28</dim>
					<dim>192</dim>
				</port>
			</output>
		</layer>
		<layer id="375" name="Constant_702959016444" type="Const" version="opset1">
			<data element_type="f32" offset="353128" shape="1,1,1,192" size="768"/>
			<output>
				<port id="0" precision="FP32">
					<dim>1</dim>
					<dim>1</dim>
					<dim>1</dim>
					<dim>192</dim>
				</port>
			</output>
		</layer>
		<layer id="376" name="Mul_119" type="Multiply" version="opset1">
			<data auto_broadcast="numpy"/>
			<rt_info>
				<attribute name="fused_names" value="Mul_119" version="0"/>
			</rt_info>
			<input>
				<port id="0">
					<dim>1</dim>
					<dim>28</dim>
					<dim>28</dim>
					<dim>192</dim>
				</port>
				<port id="1">
					<dim>1</dim>
					<dim>1</dim>
					<dim>1</dim>
					<dim>192</dim>
				</port>
			</input>
			<output>
				<port id="2" names="320" precision="FP32">
					<dim>1</dim>
					<dim>28</dim>
					<dim>28</dim>
					<dim>192</dim>
				</port>
			</output>
		</layer>
		<layer id="377" name="Constant_703059216243" type="Const" version="opset1">
			<data element_type="f32" offset="353896" shape="1,1,1,192" size="768"/>
			<output>
				<port id="0" precision="FP32">
					<dim>1</dim>
					<dim>1</dim>
					<dim>1</dim>
					<dim>192</dim>
				</port>
			</output>
		</layer>
		<layer id="378" name="Add_120" type="Add" version="opset1">
			<data auto_broadcast="numpy"/>
			<rt_info>
				<attribute name="fused_names" value="Add_120" version="0"/>
			</rt_info>
			<input>
				<port id="0">
					<dim>1</dim>
					<dim>28</dim>
					<dim>28</dim>
					<dim>192</dim>
				</port>
				<port id="1">
					<dim>1</dim>
					<dim>1</dim>
					<dim>1</dim>
					<dim>192</dim>
				</port>
			</input>
			<output>
				<port id="2" names="321" precision="FP32">
					<dim>1</dim>
					<dim>28</dim>
					<dim>28</dim>
					<dim>192</dim>
				</port>
			</output>
		</layer>
		<layer id="379" name="MatMul_121/fq_input_0" type="FakeQuantize" version="opset1">
			<data auto_broadcast="numpy" levels="256"/>
			<input>
				<port id="0">
					<dim>1</dim>
					<dim>28</dim>
					<dim>28</dim>
					<dim>192</dim>
				</port>
				<port id="1"/>
				<port id="2"/>
				<port id="3"/>
				<port id="4"/>
			</input>
			<output>
				<port id="5" precision="FP32">
					<dim>1</dim>
					<dim>28</dim>
					<dim>28</dim>
					<dim>192</dim>
				</port>
			</output>
		</layer>
		<layer id="380" name="Constant_63225948523/quantized961315619" type="Const" version="opset1">
			<data element_type="i8" offset="354664" shape="768,192" size="147456"/>
			<output>
				<port id="0" precision="I8">
					<dim>768</dim>
					<dim>192</dim>
				</port>
			</output>
		</layer>
		<layer id="381" name="Constant_63225948523/quantized/to_f32" type="Convert" version="opset1">
			<data destination_type="f32"/>
			<input>
				<port id="0">
					<dim>768</dim>
					<dim>192</dim>
				</port>
			</input>
			<output>
				<port id="1" precision="FP32">
					<dim>768</dim>
					<dim>192</dim>
				</port>
			</output>
		</layer>
		<layer id="382" name="MatMul_121/fq_weights_1/zero_point963215727" type="Const" version="opset1">
			<data element_type="f32" offset="502120" shape="768,1" size="3072"/>
			<output>
				<port id="0" precision="FP32">
					<dim>768</dim>
					<dim>1</dim>
				</port>
			</output>
		</layer>
		<layer id="383" name="MatMul_121/fq_weights_1/minus_zp" type="Subtract" version="opset1">
			<data auto_broadcast="numpy"/>
			<input>
				<port id="0">
					<dim>768</dim>
					<dim>192</dim>
				</port>
				<port id="1">
					<dim>768</dim>
					<dim>1</dim>
				</port>
			</input>
			<output>
				<port id="2" precision="FP32">
					<dim>768</dim>
					<dim>192</dim>
				</port>
			</output>
		</layer>
		<layer id="384" name="MatMul_121/fq_weights_1/scale962116207" type="Const" version="opset1">
			<data element_type="f32" offset="505192" shape="768,1" size="3072"/>
			<output>
				<port id="0" precision="FP32">
					<dim>768</dim>
					<dim>1</dim>
				</port>
			</output>
		</layer>
		<layer id="385" name="MatMul_121/fq_weights_1/mulpiply_by_scale" type="Multiply" version="opset1">
			<data auto_broadcast="numpy"/>
			<input>
				<port id="0">
					<dim>768</dim>
					<dim>192</dim>
				</port>
				<port id="1">
					<dim>768</dim>
					<dim>1</dim>
				</port>
			</input>
			<output>
				<port id="2" precision="FP32">
					<dim>768</dim>
					<dim>192</dim>
				</port>
			</output>
		</layer>
		<layer id="386" name="MatMul_121" type="MatMul" version="opset1">
			<data transpose_a="false" transpose_b="true"/>
			<rt_info>
				<attribute name="fused_names" value="824, MatMul_121" version="0"/>
			</rt_info>
			<input>
				<port id="0">
					<dim>1</dim>
					<dim>28</dim>
					<dim>28</dim>
					<dim>192</dim>
				</port>
				<port id="1">
					<dim>768</dim>
					<dim>192</dim>
				</port>
			</input>
			<output>
				<port id="2" names="323" precision="FP32">
					<dim>1</dim>
					<dim>28</dim>
					<dim>28</dim>
					<dim>768</dim>
				</port>
			</output>
		</layer>
		<layer id="387" name="Constant_703159615979" type="Const" version="opset1">
			<data element_type="f32" offset="508264" shape="1,1,1,768" size="3072"/>
			<output>
				<port id="0" precision="FP32">
					<dim>1</dim>
					<dim>1</dim>
					<dim>1</dim>
					<dim>768</dim>
				</port>
			</output>
		</layer>
		<layer id="388" name="Add_122" type="Add" version="opset1">
			<data auto_broadcast="numpy"/>
			<rt_info>
				<attribute name="fused_names" value="Add_122" version="0"/>
			</rt_info>
			<input>
				<port id="0">
					<dim>1</dim>
					<dim>28</dim>
					<dim>28</dim>
					<dim>768</dim>
				</port>
				<port id="1">
					<dim>1</dim>
					<dim>1</dim>
					<dim>1</dim>
					<dim>768</dim>
				</port>
			</input>
			<output>
				<port id="2" names="324" precision="FP32">
					<dim>1</dim>
					<dim>28</dim>
					<dim>28</dim>
					<dim>768</dim>
				</port>
			</output>
		</layer>
		<layer id="389" name="Mul_130" type="Gelu" version="opset7">
			<data approximation_mode="ERF"/>
			<rt_info>
				<attribute name="fused_names" value="Add_127, Div_124, Erf_125, Mul_128, Mul_130" version="0"/>
			</rt_info>
			<input>
				<port id="0">
					<dim>1</dim>
					<dim>28</dim>
					<dim>28</dim>
					<dim>768</dim>
				</port>
			</input>
			<output>
				<port id="1" names="332" precision="FP32">
					<dim>1</dim>
					<dim>28</dim>
					<dim>28</dim>
					<dim>768</dim>
				</port>
			</output>
		</layer>
		<layer id="390" name="Multiply_6571/fq_input_0" type="FakeQuantize" version="opset1">
			<data auto_broadcast="numpy" levels="256"/>
			<input>
				<port id="0">
					<dim>1</dim>
					<dim>28</dim>
					<dim>28</dim>
					<dim>768</dim>
				</port>
				<port id="1"/>
				<port id="2"/>
				<port id="3"/>
				<port id="4"/>
			</input>
			<output>
				<port id="5" precision="FP32">
					<dim>1</dim>
					<dim>28</dim>
					<dim>28</dim>
					<dim>768</dim>
				</port>
			</output>
		</layer>
		<layer id="391" name="Constant_67055998525/quantized949315559" type="Const" version="opset1">
			<data element_type="i8" offset="511336" shape="192,768" size="147456"/>
			<output>
				<port id="0" precision="I8">
					<dim>192</dim>
					<dim>768</dim>
				</port>
			</output>
		</layer>
		<layer id="392" name="Constant_67055998525/quantized/to_f32" type="Convert" version="opset1">
			<data destination_type="f32"/>
			<input>
				<port id="0">
					<dim>192</dim>
					<dim>768</dim>
				</port>
			</input>
			<output>
				<port id="1" precision="FP32">
					<dim>192</dim>
					<dim>768</dim>
				</port>
			</output>
		</layer>
		<layer id="393" name="Multiply_6571/fq_weights_1/zero_point951215526" type="Const" version="opset1">
			<data element_type="f32" offset="658792" shape="192,1" size="768"/>
			<output>
				<port id="0" precision="FP32">
					<dim>192</dim>
					<dim>1</dim>
				</port>
			</output>
		</layer>
		<layer id="394" name="Multiply_6571/fq_weights_1/minus_zp" type="Subtract" version="opset1">
			<data auto_broadcast="numpy"/>
			<input>
				<port id="0">
					<dim>192</dim>
					<dim>768</dim>
				</port>
				<port id="1">
					<dim>192</dim>
					<dim>1</dim>
				</port>
			</input>
			<output>
				<port id="2" precision="FP32">
					<dim>192</dim>
					<dim>768</dim>
				</port>
			</output>
		</layer>
		<layer id="395" name="Multiply_6571/fq_weights_1/scale950114284" type="Const" version="opset1">
			<data element_type="f32" offset="659560" shape="192,1" size="768"/>
			<output>
				<port id="0" precision="FP32">
					<dim>192</dim>
					<dim>1</dim>
				</port>
			</output>
		</layer>
		<layer id="396" name="Multiply_6571/fq_weights_1/mulpiply_by_scale" type="Multiply" version="opset1">
			<data auto_broadcast="numpy"/>
			<input>
				<port id="0">
					<dim>192</dim>
					<dim>768</dim>
				</port>
				<port id="1">
					<dim>192</dim>
					<dim>1</dim>
				</port>
			</input>
			<output>
				<port id="2" precision="FP32">
					<dim>192</dim>
					<dim>768</dim>
				</port>
			</output>
		</layer>
		<layer id="397" name="Multiply_6571" type="MatMul" version="opset1">
			<data transpose_a="false" transpose_b="true"/>
			<rt_info>
				<attribute name="fused_names" value="825, Add_132, MatMul_131, Mul_133, stages.1.0.gamma" version="0"/>
			</rt_info>
			<input>
				<port id="0">
					<dim>1</dim>
					<dim>28</dim>
					<dim>28</dim>
					<dim>768</dim>
				</port>
				<port id="1">
					<dim>192</dim>
					<dim>768</dim>
				</port>
			</input>
			<output>
				<port id="2" precision="FP32">
					<dim>1</dim>
					<dim>28</dim>
					<dim>28</dim>
					<dim>192</dim>
				</port>
			</output>
		</layer>
		<layer id="398" name="Constant_703260114359" type="Const" version="opset1">
			<data element_type="f32" offset="660328" shape="1,1,1,192" size="768"/>
			<output>
				<port id="0" precision="FP32">
					<dim>1</dim>
					<dim>1</dim>
					<dim>1</dim>
					<dim>192</dim>
				</port>
			</output>
		</layer>
		<layer id="399" name="Mul_133" type="Add" version="opset1">
			<data auto_broadcast="numpy"/>
			<rt_info>
				<attribute name="fused_names" value="Add_132, Mul_133" version="0"/>
			</rt_info>
			<input>
				<port id="0">
					<dim>1</dim>
					<dim>28</dim>
					<dim>28</dim>
					<dim>192</dim>
				</port>
				<port id="1">
					<dim>1</dim>
					<dim>1</dim>
					<dim>1</dim>
					<dim>192</dim>
				</port>
			</input>
			<output>
				<port id="2" names="336" precision="FP32">
					<dim>1</dim>
					<dim>28</dim>
					<dim>28</dim>
					<dim>192</dim>
				</port>
			</output>
		</layer>
		<layer id="400" name="Transpose_134/fq_input_0" type="FakeQuantize" version="opset1">
			<data auto_broadcast="numpy" levels="256"/>
			<input>
				<port id="0">
					<dim>1</dim>
					<dim>28</dim>
					<dim>28</dim>
					<dim>192</dim>
				</port>
				<port id="1"/>
				<port id="2"/>
				<port id="3"/>
				<port id="4"/>
			</input>
			<output>
				<port id="5" precision="FP32">
					<dim>1</dim>
					<dim>28</dim>
					<dim>28</dim>
					<dim>192</dim>
				</port>
			</output>
		</layer>
		<layer id="401" name="Constant_914603" type="Const" version="opset1">
			<data element_type="i64" offset="92608" shape="4" size="32"/>
			<rt_info>
				<attribute name="fused_names" value="Constant_914" version="0"/>
			</rt_info>
			<output>
				<port id="0" precision="I64">
					<dim>4</dim>
				</port>
			</output>
		</layer>
		<layer id="402" name="Transpose_134" type="Transpose" version="opset1">
			<rt_info>
				<attribute name="fused_names" value="Transpose_134" version="0"/>
			</rt_info>
			<input>
				<port id="0">
					<dim>1</dim>
					<dim>28</dim>
					<dim>28</dim>
					<dim>192</dim>
				</port>
				<port id="1">
					<dim>4</dim>
				</port>
			</input>
			<output>
				<port id="2" names="337" precision="FP32">
					<dim>1</dim>
					<dim>192</dim>
					<dim>28</dim>
					<dim>28</dim>
				</port>
			</output>
		</layer>
		<layer id="403" name="Add_135" type="Add" version="opset1">
			<data auto_broadcast="numpy"/>
			<rt_info>
				<attribute name="fused_names" value="Add_135" version="0"/>
			</rt_info>
			<input>
				<port id="0">
					<dim>1</dim>
					<dim>192</dim>
					<dim>28</dim>
					<dim>28</dim>
				</port>
				<port id="1">
					<dim>1</dim>
					<dim>192</dim>
					<dim>28</dim>
					<dim>28</dim>
				</port>
			</input>
			<output>
				<port id="2" names="338" precision="FP32">
					<dim>1</dim>
					<dim>192</dim>
					<dim>28</dim>
					<dim>28</dim>
				</port>
			</output>
		</layer>
		<layer id="404" name="Add_163/fq_input_0" type="FakeQuantize" version="opset1">
			<data auto_broadcast="numpy" levels="256"/>
			<input>
				<port id="0">
					<dim>1</dim>
					<dim>192</dim>
					<dim>28</dim>
					<dim>28</dim>
				</port>
				<port id="1"/>
				<port id="2"/>
				<port id="3"/>
				<port id="4"/>
			</input>
			<output>
				<port id="5" precision="FP32">
					<dim>1</dim>
					<dim>192</dim>
					<dim>28</dim>
					<dim>28</dim>
				</port>
			</output>
		</layer>
		<layer id="405" name="4595459915772" type="Const" version="opset1">
			<data element_type="f32" offset="661096" shape="" size="4"/>
			<output>
				<port id="0" precision="FP32"/>
			</output>
		</layer>
		<layer id="406" name="4596460016231" type="Const" version="opset1">
			<data element_type="f32" offset="661100" shape="" size="4"/>
			<output>
				<port id="0" precision="FP32"/>
			</output>
		</layer>
		<layer id="407" name="4597460115211" type="Const" version="opset1">
			<data element_type="f32" offset="661096" shape="" size="4"/>
			<output>
				<port id="0" precision="FP32"/>
			</output>
		</layer>
		<layer id="408" name="4598460216195" type="Const" version="opset1">
			<data element_type="f32" offset="661100" shape="" size="4"/>
			<output>
				<port id="0" precision="FP32"/>
			</output>
		</layer>
		<layer id="409" name="3599360316219" type="Const" version="opset1">
			<data element_type="f32" offset="661104" shape="" size="4"/>
			<output>
				<port id="0" precision="FP32"/>
			</output>
		</layer>
		<layer id="410" name="3600360414497" type="Const" version="opset1">
			<data element_type="f32" offset="661108" shape="" size="4"/>
			<output>
				<port id="0" precision="FP32"/>
			</output>
		</layer>
		<layer id="411" name="3601360514755" type="Const" version="opset1">
			<data element_type="f32" offset="661104" shape="" size="4"/>
			<output>
				<port id="0" precision="FP32"/>
			</output>
		</layer>
		<layer id="412" name="3602360614812" type="Const" version="opset1">
			<data element_type="f32" offset="661108" shape="" size="4"/>
			<output>
				<port id="0" precision="FP32"/>
			</output>
		</layer>
		<layer id="413" name="1909191315151" type="Const" version="opset1">
			<data element_type="f32" offset="661112" shape="" size="4"/>
			<output>
				<port id="0" precision="FP32"/>
			</output>
		</layer>
		<layer id="414" name="1910191416432" type="Const" version="opset1">
			<data element_type="f32" offset="661116" shape="" size="4"/>
			<output>
				<port id="0" precision="FP32"/>
			</output>
		</layer>
		<layer id="415" name="1911191515514" type="Const" version="opset1">
			<data element_type="f32" offset="661112" shape="" size="4"/>
			<output>
				<port id="0" precision="FP32"/>
			</output>
		</layer>
		<layer id="416" name="1912191616258" type="Const" version="opset1">
			<data element_type="f32" offset="661116" shape="" size="4"/>
			<output>
				<port id="0" precision="FP32"/>
			</output>
		</layer>
		<layer id="417" name="Constant_104061215934" type="Const" version="opset1">
			<data element_type="i64" offset="8" shape="1" size="8"/>
			<rt_info>
				<attribute name="fused_names" value="Constant_1040" version="0"/>
			</rt_info>
			<output>
				<port id="0" precision="I64">
					<dim>1</dim>
				</port>
			</output>
		</layer>
		<layer id="418" name="4775477914512" type="Const" version="opset1">
			<data element_type="f32" offset="661120" shape="" size="4"/>
			<output>
				<port id="0" precision="FP32"/>
			</output>
		</layer>
		<layer id="419" name="4776478015253" type="Const" version="opset1">
			<data element_type="f32" offset="661124" shape="" size="4"/>
			<output>
				<port id="0" precision="FP32"/>
			</output>
		</layer>
		<layer id="420" name="4777478114530" type="Const" version="opset1">
			<data element_type="f32" offset="661120" shape="" size="4"/>
			<output>
				<port id="0" precision="FP32"/>
			</output>
		</layer>
		<layer id="421" name="4778478215337" type="Const" version="opset1">
			<data element_type="f32" offset="661124" shape="" size="4"/>
			<output>
				<port id="0" precision="FP32"/>
			</output>
		</layer>
		<layer id="422" name="12688/value1269015229" type="Const" version="opset1">
			<data element_type="i64" offset="341376" shape="5" size="40"/>
			<output>
				<port id="0" precision="I64">
					<dim>5</dim>
				</port>
			</output>
		</layer>
		<layer id="423" name="Reshape_9246068528/quantized1084314809" type="Const" version="opset1">
			<data element_type="i8" offset="661128" shape="192,1,7,7" size="9408"/>
			<output>
				<port id="0" precision="I8">
					<dim>192</dim>
					<dim>1</dim>
					<dim>7</dim>
					<dim>7</dim>
				</port>
			</output>
		</layer>
		<layer id="424" name="Reshape_9246068528/quantized/to_f32" type="Convert" version="opset1">
			<data destination_type="f32"/>
			<input>
				<port id="0">
					<dim>192</dim>
					<dim>1</dim>
					<dim>7</dim>
					<dim>7</dim>
				</port>
			</input>
			<output>
				<port id="1" precision="FP32">
					<dim>192</dim>
					<dim>1</dim>
					<dim>7</dim>
					<dim>7</dim>
				</port>
			</output>
		</layer>
		<layer id="425" name="Conv_136/WithoutBiases/fq_weights_1/zero_point1086214275" type="Const" version="opset1">
			<data element_type="f32" offset="670536" shape="192,1,1,1" size="768"/>
			<output>
				<port id="0" precision="FP32">
					<dim>192</dim>
					<dim>1</dim>
					<dim>1</dim>
					<dim>1</dim>
				</port>
			</output>
		</layer>
		<layer id="426" name="Conv_136/WithoutBiases/fq_weights_1/minus_zp" type="Subtract" version="opset1">
			<data auto_broadcast="numpy"/>
			<input>
				<port id="0">
					<dim>192</dim>
					<dim>1</dim>
					<dim>7</dim>
					<dim>7</dim>
				</port>
				<port id="1">
					<dim>192</dim>
					<dim>1</dim>
					<dim>1</dim>
					<dim>1</dim>
				</port>
			</input>
			<output>
				<port id="2" precision="FP32">
					<dim>192</dim>
					<dim>1</dim>
					<dim>7</dim>
					<dim>7</dim>
				</port>
			</output>
		</layer>
		<layer id="427" name="Conv_136/WithoutBiases/fq_weights_1/scale1085115925" type="Const" version="opset1">
			<data element_type="f32" offset="671304" shape="192,1,1,1" size="768"/>
			<output>
				<port id="0" precision="FP32">
					<dim>192</dim>
					<dim>1</dim>
					<dim>1</dim>
					<dim>1</dim>
				</port>
			</output>
		</layer>
		<layer id="428" name="Conv_136/WithoutBiases/fq_weights_1/mulpiply_by_scale" type="Multiply" version="opset1">
			<data auto_broadcast="numpy"/>
			<input>
				<port id="0">
					<dim>192</dim>
					<dim>1</dim>
					<dim>7</dim>
					<dim>7</dim>
				</port>
				<port id="1">
					<dim>192</dim>
					<dim>1</dim>
					<dim>1</dim>
					<dim>1</dim>
				</port>
			</input>
			<output>
				<port id="2" precision="FP32">
					<dim>192</dim>
					<dim>1</dim>
					<dim>7</dim>
					<dim>7</dim>
				</port>
			</output>
		</layer>
		<layer id="429" name="12688" type="Reshape" version="opset1">
			<data special_zero="true"/>
			<input>
				<port id="0">
					<dim>192</dim>
					<dim>1</dim>
					<dim>7</dim>
					<dim>7</dim>
				</port>
				<port id="1">
					<dim>5</dim>
				</port>
			</input>
			<output>
				<port id="2" precision="FP32">
					<dim>192</dim>
					<dim>1</dim>
					<dim>1</dim>
					<dim>7</dim>
					<dim>7</dim>
				</port>
			</output>
		</layer>
		<layer id="430" name="Conv_136/WithoutBiases" type="GroupConvolution" version="opset1">
			<data auto_pad="explicit" dilations="1,1" pads_begin="3,3" pads_end="3,3" strides="1,1"/>
			<rt_info>
				<attribute name="fused_names" value="Conv_136/WithoutBiases, Reshape_924" version="0"/>
			</rt_info>
			<input>
				<port id="0">
					<dim>1</dim>
					<dim>192</dim>
					<dim>28</dim>
					<dim>28</dim>
				</port>
				<port id="1">
					<dim>192</dim>
					<dim>1</dim>
					<dim>1</dim>
					<dim>7</dim>
					<dim>7</dim>
				</port>
			</input>
			<output>
				<port id="2" precision="FP32">
					<dim>1</dim>
					<dim>192</dim>
					<dim>28</dim>
					<dim>28</dim>
				</port>
			</output>
		</layer>
		<layer id="431" name="Reshape_101060814293" type="Const" version="opset1">
			<data element_type="f32" offset="672072" shape="1,192,1,1" size="768"/>
			<output>
				<port id="0" precision="FP32">
					<dim>1</dim>
					<dim>192</dim>
					<dim>1</dim>
					<dim>1</dim>
				</port>
			</output>
		</layer>
		<layer id="432" name="Conv_136" type="Add" version="opset1">
			<data auto_broadcast="numpy"/>
			<rt_info>
				<attribute name="fused_names" value="Concat_1009, Conv_136, Reshape_1010" version="0"/>
			</rt_info>
			<input>
				<port id="0">
					<dim>1</dim>
					<dim>192</dim>
					<dim>28</dim>
					<dim>28</dim>
				</port>
				<port id="1">
					<dim>1</dim>
					<dim>192</dim>
					<dim>1</dim>
					<dim>1</dim>
				</port>
			</input>
			<output>
				<port id="2" names="339" precision="FP32">
					<dim>1</dim>
					<dim>192</dim>
					<dim>28</dim>
					<dim>28</dim>
				</port>
			</output>
		</layer>
		<layer id="433" name="Transpose_137/fq_input_0" type="FakeQuantize" version="opset1">
			<data auto_broadcast="numpy" levels="256"/>
			<input>
				<port id="0">
					<dim>1</dim>
					<dim>192</dim>
					<dim>28</dim>
					<dim>28</dim>
				</port>
				<port id="1"/>
				<port id="2"/>
				<port id="3"/>
				<port id="4"/>
			</input>
			<output>
				<port id="5" precision="FP32">
					<dim>1</dim>
					<dim>192</dim>
					<dim>28</dim>
					<dim>28</dim>
				</port>
			</output>
		</layer>
		<layer id="434" name="Constant_1038610" type="Const" version="opset1">
			<data element_type="i64" offset="12320" shape="4" size="32"/>
			<rt_info>
				<attribute name="fused_names" value="Constant_1038" version="0"/>
			</rt_info>
			<output>
				<port id="0" precision="I64">
					<dim>4</dim>
				</port>
			</output>
		</layer>
		<layer id="435" name="Transpose_137" type="Transpose" version="opset1">
			<rt_info>
				<attribute name="fused_names" value="Transpose_137" version="0"/>
			</rt_info>
			<input>
				<port id="0">
					<dim>1</dim>
					<dim>192</dim>
					<dim>28</dim>
					<dim>28</dim>
				</port>
				<port id="1">
					<dim>4</dim>
				</port>
			</input>
			<output>
				<port id="2" names="340" precision="FP32">
					<dim>1</dim>
					<dim>28</dim>
					<dim>28</dim>
					<dim>192</dim>
				</port>
			</output>
		</layer>
		<layer id="436" name="Div_146" type="MVN" version="opset6">
			<data eps="9.999999974752427e-07" eps_mode="INSIDE_SQRT" normalize_variance="true"/>
			<rt_info>
				<attribute name="fused_names" value="Add_144, Div_146, Pow_141, ReduceMean_138, ReduceMean_142, Sqrt_145, Sub_139" version="0"/>
			</rt_info>
			<input>
				<port id="0">
					<dim>1</dim>
					<dim>28</dim>
					<dim>28</dim>
					<dim>192</dim>
				</port>
				<port id="1">
					<dim>1</dim>
				</port>
			</input>
			<output>
				<port id="2" names="349" precision="FP32">
					<dim>1</dim>
					<dim>28</dim>
					<dim>28</dim>
					<dim>192</dim>
				</port>
			</output>
		</layer>
		<layer id="437" name="Constant_703361415985" type="Const" version="opset1">
			<data element_type="f32" offset="672840" shape="1,1,1,192" size="768"/>
			<output>
				<port id="0" precision="FP32">
					<dim>1</dim>
					<dim>1</dim>
					<dim>1</dim>
					<dim>192</dim>
				</port>
			</output>
		</layer>
		<layer id="438" name="Mul_147" type="Multiply" version="opset1">
			<data auto_broadcast="numpy"/>
			<rt_info>
				<attribute name="fused_names" value="Mul_147" version="0"/>
			</rt_info>
			<input>
				<port id="0">
					<dim>1</dim>
					<dim>28</dim>
					<dim>28</dim>
					<dim>192</dim>
				</port>
				<port id="1">
					<dim>1</dim>
					<dim>1</dim>
					<dim>1</dim>
					<dim>192</dim>
				</port>
			</input>
			<output>
				<port id="2" names="350" precision="FP32">
					<dim>1</dim>
					<dim>28</dim>
					<dim>28</dim>
					<dim>192</dim>
				</port>
			</output>
		</layer>
		<layer id="439" name="Constant_703461615403" type="Const" version="opset1">
			<data element_type="f32" offset="673608" shape="1,1,1,192" size="768"/>
			<output>
				<port id="0" precision="FP32">
					<dim>1</dim>
					<dim>1</dim>
					<dim>1</dim>
					<dim>192</dim>
				</port>
			</output>
		</layer>
		<layer id="440" name="Add_148" type="Add" version="opset1">
			<data auto_broadcast="numpy"/>
			<rt_info>
				<attribute name="fused_names" value="Add_148" version="0"/>
			</rt_info>
			<input>
				<port id="0">
					<dim>1</dim>
					<dim>28</dim>
					<dim>28</dim>
					<dim>192</dim>
				</port>
				<port id="1">
					<dim>1</dim>
					<dim>1</dim>
					<dim>1</dim>
					<dim>192</dim>
				</port>
			</input>
			<output>
				<port id="2" names="351" precision="FP32">
					<dim>1</dim>
					<dim>28</dim>
					<dim>28</dim>
					<dim>192</dim>
				</port>
			</output>
		</layer>
		<layer id="441" name="MatMul_149/fq_input_0" type="FakeQuantize" version="opset1">
			<data auto_broadcast="numpy" levels="256"/>
			<input>
				<port id="0">
					<dim>1</dim>
					<dim>28</dim>
					<dim>28</dim>
					<dim>192</dim>
				</port>
				<port id="1"/>
				<port id="2"/>
				<port id="3"/>
				<port id="4"/>
			</input>
			<output>
				<port id="5" precision="FP32">
					<dim>1</dim>
					<dim>28</dim>
					<dim>28</dim>
					<dim>192</dim>
				</port>
			</output>
		</layer>
		<layer id="442" name="Constant_63386188534/quantized1009315418" type="Const" version="opset1">
			<data element_type="i8" offset="674376" shape="768,192" size="147456"/>
			<output>
				<port id="0" precision="I8">
					<dim>768</dim>
					<dim>192</dim>
				</port>
			</output>
		</layer>
		<layer id="443" name="Constant_63386188534/quantized/to_f32" type="Convert" version="opset1">
			<data destination_type="f32"/>
			<input>
				<port id="0">
					<dim>768</dim>
					<dim>192</dim>
				</port>
			</input>
			<output>
				<port id="1" precision="FP32">
					<dim>768</dim>
					<dim>192</dim>
				</port>
			</output>
		</layer>
		<layer id="444" name="MatMul_149/fq_weights_1/zero_point1011215316" type="Const" version="opset1">
			<data element_type="f32" offset="821832" shape="768,1" size="3072"/>
			<output>
				<port id="0" precision="FP32">
					<dim>768</dim>
					<dim>1</dim>
				</port>
			</output>
		</layer>
		<layer id="445" name="MatMul_149/fq_weights_1/minus_zp" type="Subtract" version="opset1">
			<data auto_broadcast="numpy"/>
			<input>
				<port id="0">
					<dim>768</dim>
					<dim>192</dim>
				</port>
				<port id="1">
					<dim>768</dim>
					<dim>1</dim>
				</port>
			</input>
			<output>
				<port id="2" precision="FP32">
					<dim>768</dim>
					<dim>192</dim>
				</port>
			</output>
		</layer>
		<layer id="446" name="MatMul_149/fq_weights_1/scale1010114842" type="Const" version="opset1">
			<data element_type="f32" offset="824904" shape="768,1" size="3072"/>
			<output>
				<port id="0" precision="FP32">
					<dim>768</dim>
					<dim>1</dim>
				</port>
			</output>
		</layer>
		<layer id="447" name="MatMul_149/fq_weights_1/mulpiply_by_scale" type="Multiply" version="opset1">
			<data auto_broadcast="numpy"/>
			<input>
				<port id="0">
					<dim>768</dim>
					<dim>192</dim>
				</port>
				<port id="1">
					<dim>768</dim>
					<dim>1</dim>
				</port>
			</input>
			<output>
				<port id="2" precision="FP32">
					<dim>768</dim>
					<dim>192</dim>
				</port>
			</output>
		</layer>
		<layer id="448" name="MatMul_149" type="MatMul" version="opset1">
			<data transpose_a="false" transpose_b="true"/>
			<rt_info>
				<attribute name="fused_names" value="826, MatMul_149" version="0"/>
			</rt_info>
			<input>
				<port id="0">
					<dim>1</dim>
					<dim>28</dim>
					<dim>28</dim>
					<dim>192</dim>
				</port>
				<port id="1">
					<dim>768</dim>
					<dim>192</dim>
				</port>
			</input>
			<output>
				<port id="2" names="353" precision="FP32">
					<dim>1</dim>
…
		<edge from-layer="707" from-port="0" to-layer="708" to-port="1"/>
		<edge from-layer="708" from-port="2" to-layer="710" to-port="0"/>
		<edge from-layer="709" from-port="0" to-layer="710" to-port="1"/>
		<edge from-layer="704" from-port="5" to-layer="711" to-port="0"/>
		<edge from-layer="710" from-port="2" to-layer="711" to-port="1"/>
		<edge from-layer="711" from-port="2" to-layer="713" to-port="0"/>
		<edge from-layer="712" from-port="0" to-layer="713" to-port="1"/>
		<edge from-layer="713" from-port="2" to-layer="714" to-port="0"/>
		<edge from-layer="714" from-port="1" to-layer="715" to-port="0"/>
		<edge from-layer="672" from-port="0" to-layer="715" to-port="1"/>
		<edge from-layer="673" from-port="0" to-layer="715" to-port="2"/>
		<edge from-layer="674" from-port="0" to-layer="715" to-port="3"/>
		<edge from-layer="675" from-port="0" to-layer="715" to-port="4"/>
		<edge from-layer="716" from-port="0" to-layer="717" to-port="0"/>
		<edge from-layer="717" from-port="1" to-layer="719" to-port="0"/>
		<edge from-layer="718" from-port="0" to-layer="719" to-port="1"/>
		<edge from-layer="719" from-port="2" to-layer="721" to-port="0"/>
		<edge from-layer="720" from-port="0" to-layer="721" to-port="1"/>
		<edge from-layer="715" from-port="5" to-layer="722" to-port="0"/>
		<edge from-layer="721" from-port="2" to-layer="722" to-port="1"/>
		<edge from-layer="722" from-port="2" to-layer="724" to-port="0"/>
		<edge from-layer="723" from-port="0" to-layer="724" to-port="1"/>
		<edge from-layer="724" from-port="2" to-layer="725" to-port="0"/>
		<edge from-layer="668" from-port="0" to-layer="725" to-port="1"/>
		<edge from-layer="669" from-port="0" to-layer="725" to-port="2"/>
		<edge from-layer="670" from-port="0" to-layer="725" to-port="3"/>
		<edge from-layer="671" from-port="0" to-layer="725" to-port="4"/>
		<edge from-layer="725" from-port="5" to-layer="727" to-port="0"/>
		<edge from-layer="726" from-port="0" to-layer="727" to-port="1"/>
		<edge from-layer="667" from-port="5" to-layer="728" to-port="0"/>
		<edge from-layer="727" from-port="2" to-layer="728" to-port="1"/>
		<edge from-layer="728" from-port="2" to-layer="729" to-port="0"/>
		<edge from-layer="55" from-port="0" to-layer="729" to-port="1"/>
		<edge from-layer="56" from-port="0" to-layer="729" to-port="2"/>
		<edge from-layer="57" from-port="0" to-layer="729" to-port="3"/>
		<edge from-layer="58" from-port="0" to-layer="729" to-port="4"/>
		<edge from-layer="748" from-port="0" to-layer="749" to-port="0"/>
		<edge from-layer="749" from-port="1" to-layer="751" to-port="0"/>
		<edge from-layer="750" from-port="0" to-layer="751" to-port="1"/>
		<edge from-layer="751" from-port="2" to-layer="753" to-port="0"/>
		<edge from-layer="752" from-port="0" to-layer="753" to-port="1"/>
		<edge from-layer="753" from-port="2" to-layer="754" to-port="0"/>
		<edge from-layer="747" from-port="0" to-layer="754" to-port="1"/>
		<edge from-layer="729" from-port="5" to-layer="755" to-port="0"/>
		<edge from-layer="754" from-port="2" to-layer="755" to-port="1"/>
		<edge from-layer="755" from-port="2" to-layer="757" to-port="0"/>
		<edge from-layer="756" from-port="0" to-layer="757" to-port="1"/>
		<edge from-layer="757" from-port="2" to-layer="758" to-port="0"/>
		<edge from-layer="743" from-port="0" to-layer="758" to-port="1"/>
		<edge from-layer="744" from-port="0" to-layer="758" to-port="2"/>
		<edge from-layer="745" from-port="0" to-layer="758" to-port="3"/>
		<edge from-layer="746" from-port="0" to-layer="758" to-port="4"/>
		<edge from-layer="758" from-port="5" to-layer="760" to-port="0"/>
		<edge from-layer="759" from-port="0" to-layer="760" to-port="1"/>
		<edge from-layer="760" from-port="2" to-layer="761" to-port="0"/>
		<edge from-layer="742" from-port="0" to-layer="761" to-port="1"/>
		<edge from-layer="761" from-port="2" to-layer="763" to-port="0"/>
		<edge from-layer="762" from-port="0" to-layer="763" to-port="1"/>
		<edge from-layer="763" from-port="2" to-layer="765" to-port="0"/>
		<edge from-layer="764" from-port="0" to-layer="765" to-port="1"/>
		<edge from-layer="765" from-port="2" to-layer="766" to-port="0"/>
		<edge from-layer="738" from-port="0" to-layer="766" to-port="1"/>
		<edge from-layer="739" from-port="0" to-layer="766" to-port="2"/>
		<edge from-layer="740" from-port="0" to-layer="766" to-port="3"/>
		<edge from-layer="741" from-port="0" to-layer="766" to-port="4"/>
		<edge from-layer="767" from-port="0" to-layer="768" to-port="0"/>
		<edge from-layer="768" from-port="1" to-layer="770" to-port="0"/>
		<edge from-layer="769" from-port="0" to-layer="770" to-port="1"/>
		<edge from-layer="770" from-port="2" to-layer="772" to-port="0"/>
		<edge from-layer="771" from-port="0" to-layer="772" to-port="1"/>
		<edge from-layer="766" from-port="5" to-layer="773" to-port="0"/>
		<edge from-layer="772" from-port="2" to-layer="773" to-port="1"/>
		<edge from-layer="773" from-port="2" to-layer="775" to-port="0"/>
		<edge from-layer="774" from-port="0" to-layer="775" to-port="1"/>
		<edge from-layer="775" from-port="2" to-layer="776" to-port="0"/>
		<edge from-layer="776" from-port="1" to-layer="777" to-port="0"/>
		<edge from-layer="734" from-port="0" to-layer="777" to-port="1"/>
		<edge from-layer="735" from-port="0" to-layer="777" to-port="2"/>
		<edge from-layer="736" from-port="0" to-layer="777" to-port="3"/>
		<edge from-layer="737" from-port="0" to-layer="777" to-port="4"/>
		<edge from-layer="778" from-port="0" to-layer="779" to-port="0"/>
		<edge from-layer="779" from-port="1" to-layer="781" to-port="0"/>
		<edge from-layer="780" from-port="0" to-layer="781" to-port="1"/>
		<edge from-layer="781" from-port="2" to-layer="783" to-port="0"/>
		<edge from-layer="782" from-port="0" to-layer="783" to-port="1"/>
		<edge from-layer="777" from-port="5" to-layer="784" to-port="0"/>
		<edge from-layer="783" from-port="2" to-layer="784" to-port="1"/>
		<edge from-layer="784" from-port="2" to-layer="786" to-port="0"/>
		<edge from-layer="785" from-port="0" to-layer="786" to-port="1"/>
		<edge from-layer="786" from-port="2" to-layer="787" to-port="0"/>
		<edge from-layer="730" from-port="0" to-layer="787" to-port="1"/>
		<edge from-layer="731" from-port="0" to-layer="787" to-port="2"/>
		<edge from-layer="732" from-port="0" to-layer="787" to-port="3"/>
		<edge from-layer="733" from-port="0" to-layer="787" to-port="4"/>
		<edge from-layer="787" from-port="5" to-layer="789" to-port="0"/>
		<edge from-layer="788" from-port="0" to-layer="789" to-port="1"/>
		<edge from-layer="729" from-port="5" to-layer="790" to-port="0"/>
		<edge from-layer="789" from-port="2" to-layer="790" to-port="1"/>
		<edge from-layer="790" from-port="2" to-layer="791" to-port="0"/>
		<edge from-layer="51" from-port="0" to-layer="791" to-port="1"/>
		<edge from-layer="52" from-port="0" to-layer="791" to-port="2"/>
		<edge from-layer="53" from-port="0" to-layer="791" to-port="3"/>
		<edge from-layer="54" from-port="0" to-layer="791" to-port="4"/>
		<edge from-layer="810" from-port="0" to-layer="811" to-port="0"/>
		<edge from-layer="811" from-port="1" to-layer="813" to-port="0"/>
		<edge from-layer="812" from-port="0" to-layer="813" to-port="1"/>
		<edge from-layer="813" from-port="2" to-layer="815" to-port="0"/>
		<edge from-layer="814" from-port="0" to-layer="815" to-port="1"/>
		<edge from-layer="815" from-port="2" to-layer="816" to-port="0"/>
		<edge from-layer="809" from-port="0" to-layer="816" to-port="1"/>
		<edge from-layer="791" from-port="5" to-layer="817" to-port="0"/>
		<edge from-layer="816" from-port="2" to-layer="817" to-port="1"/>
		<edge from-layer="817" from-port="2" to-layer="819" to-port="0"/>
		<edge from-layer="818" from-port="0" to-layer="819" to-port="1"/>
		<edge from-layer="819" from-port="2" to-layer="820" to-port="0"/>
		<edge from-layer="805" from-port="0" to-layer="820" to-port="1"/>
		<edge from-layer="806" from-port="0" to-layer="820" to-port="2"/>
		<edge from-layer="807" from-port="0" to-layer="820" to-port="3"/>
		<edge from-layer="808" from-port="0" to-layer="820" to-port="4"/>
		<edge from-layer="820" from-port="5" to-layer="822" to-port="0"/>
		<edge from-layer="821" from-port="0" to-layer="822" to-port="1"/>
		<edge from-layer="822" from-port="2" to-layer="823" to-port="0"/>
		<edge from-layer="804" from-port="0" to-layer="823" to-port="1"/>
		<edge from-layer="823" from-port="2" to-layer="825" to-port="0"/>
		<edge from-layer="824" from-port="0" to-layer="825" to-port="1"/>
		<edge from-layer="825" from-port="2" to-layer="827" to-port="0"/>
		<edge from-layer="826" from-port="0" to-layer="827" to-port="1"/>
		<edge from-layer="827" from-port="2" to-layer="828" to-port="0"/>
		<edge from-layer="800" from-port="0" to-layer="828" to-port="1"/>
		<edge from-layer="801" from-port="0" to-layer="828" to-port="2"/>
		<edge from-layer="802" from-port="0" to-layer="828" to-port="3"/>
		<edge from-layer="803" from-port="0" to-layer="828" to-port="4"/>
		<edge from-layer="829" from-port="0" to-layer="830" to-port="0"/>
		<edge from-layer="830" from-port="1" to-layer="832" to-port="0"/>
		<edge from-layer="831" from-port="0" to-layer="832" to-port="1"/>
		<edge from-layer="832" from-port="2" to-layer="834" to-port="0"/>
		<edge from-layer="833" from-port="0" to-layer="834" to-port="1"/>
		<edge from-layer="828" from-port="5" to-layer="835" to-port="0"/>
		<edge from-layer="834" from-port="2" to-layer="835" to-port="1"/>
		<edge from-layer="835" from-port="2" to-layer="837" to-port="0"/>
		<edge from-layer="836" from-port="0" to-layer="837" to-port="1"/>
		<edge from-layer="837" from-port="2" to-layer="838" to-port="0"/>
		<edge from-layer="838" from-port="1" to-layer="839" to-port="0"/>
		<edge from-layer="796" from-port="0" to-layer="839" to-port="1"/>
		<edge from-layer="797" from-port="0" to-layer="839" to-port="2"/>
		<edge from-layer="798" from-port="0" to-layer="839" to-port="3"/>
		<edge from-layer="799" from-port="0" to-layer="839" to-port="4"/>
		<edge from-layer="840" from-port="0" to-layer="841" to-port="0"/>
		<edge from-layer="841" from-port="1" to-layer="843" to-port="0"/>
		<edge from-layer="842" from-port="0" to-layer="843" to-port="1"/>
		<edge from-layer="843" from-port="2" to-layer="845" to-port="0"/>
		<edge from-layer="844" from-port="0" to-layer="845" to-port="1"/>
		<edge from-layer="839" from-port="5" to-layer="846" to-port="0"/>
		<edge from-layer="845" from-port="2" to-layer="846" to-port="1"/>
		<edge from-layer="846" from-port="2" to-layer="848" to-port="0"/>
		<edge from-layer="847" from-port="0" to-layer="848" to-port="1"/>
		<edge from-layer="848" from-port="2" to-layer="849" to-port="0"/>
		<edge from-layer="792" from-port="0" to-layer="849" to-port="1"/>
		<edge from-layer="793" from-port="0" to-layer="849" to-port="2"/>
		<edge from-layer="794" from-port="0" to-layer="849" to-port="3"/>
		<edge from-layer="795" from-port="0" to-layer="849" to-port="4"/>
		<edge from-layer="849" from-port="5" to-layer="851" to-port="0"/>
		<edge from-layer="850" from-port="0" to-layer="851" to-port="1"/>
		<edge from-layer="791" from-port="5" to-layer="852" to-port="0"/>
		<edge from-layer="851" from-port="2" to-layer="852" to-port="1"/>
		<edge from-layer="852" from-port="2" to-layer="853" to-port="0"/>
		<edge from-layer="47" from-port="0" to-layer="853" to-port="1"/>
		<edge from-layer="48" from-port="0" to-layer="853" to-port="2"/>
		<edge from-layer="49" from-port="0" to-layer="853" to-port="3"/>
		<edge from-layer="50" from-port="0" to-layer="853" to-port="4"/>
		<edge from-layer="872" from-port="0" to-layer="873" to-port="0"/>
		<edge from-layer="873" from-port="1" to-layer="875" to-port="0"/>
		<edge from-layer="874" from-port="0" to-layer="875" to-port="1"/>
		<edge from-layer="875" from-port="2" to-layer="877" to-port="0"/>
		<edge from-layer="876" from-port="0" to-layer="877" to-port="1"/>
		<edge from-layer="877" from-port="2" to-layer="878" to-port="0"/>
		<edge from-layer="871" from-port="0" to-layer="878" to-port="1"/>
		<edge from-layer="853" from-port="5" to-layer="879" to-port="0"/>
		<edge from-layer="878" from-port="2" to-layer="879" to-port="1"/>
		<edge from-layer="879" from-port="2" to-layer="881" to-port="0"/>
		<edge from-layer="880" from-port="0" to-layer="881" to-port="1"/>
		<edge from-layer="881" from-port="2" to-layer="882" to-port="0"/>
		<edge from-layer="867" from-port="0" to-layer="882" to-port="1"/>
		<edge from-layer="868" from-port="0" to-layer="882" to-port="2"/>
		<edge from-layer="869" from-port="0" to-layer="882" to-port="3"/>
		<edge from-layer="870" from-port="0" to-layer="882" to-port="4"/>
		<edge from-layer="882" from-port="5" to-layer="884" to-port="0"/>
		<edge from-layer="883" from-port="0" to-layer="884" to-port="1"/>
		<edge from-layer="884" from-port="2" to-layer="885" to-port="0"/>
		<edge from-layer="866" from-port="0" to-layer="885" to-port="1"/>
		<edge from-layer="885" from-port="2" to-layer="887" to-port="0"/>
		<edge from-layer="886" from-port="0" to-layer="887" to-port="1"/>
		<edge from-layer="887" from-port="2" to-layer="889" to-port="0"/>
		<edge from-layer="888" from-port="0" to-layer="889" to-port="1"/>
		<edge from-layer="889" from-port="2" to-layer="890" to-port="0"/>
		<edge from-layer="862" from-port="0" to-layer="890" to-port="1"/>
		<edge from-layer="863" from-port="0" to-layer="890" to-port="2"/>
		<edge from-layer="864" from-port="0" to-layer="890" to-port="3"/>
		<edge from-layer="865" from-port="0" to-layer="890" to-port="4"/>
		<edge from-layer="891" from-port="0" to-layer="892" to-port="0"/>
		<edge from-layer="892" from-port="1" to-layer="894" to-port="0"/>
		<edge from-layer="893" from-port="0" to-layer="894" to-port="1"/>
		<edge from-layer="894" from-port="2" to-layer="896" to-port="0"/>
		<edge from-layer="895" from-port="0" to-layer="896" to-port="1"/>
		<edge from-layer="890" from-port="5" to-layer="897" to-port="0"/>
		<edge from-layer="896" from-port="2" to-layer="897" to-port="1"/>
		<edge from-layer="897" from-port="2" to-layer="899" to-port="0"/>
		<edge from-layer="898" from-port="0" to-layer="899" to-port="1"/>
		<edge from-layer="899" from-port="2" to-layer="900" to-port="0"/>
		<edge from-layer="900" from-port="1" to-layer="901" to-port="0"/>
		<edge from-layer="858" from-port="0" to-layer="901" to-port="1"/>
		<edge from-layer="859" from-port="0" to-layer="901" to-port="2"/>
		<edge from-layer="860" from-port="0" to-layer="901" to-port="3"/>
		<edge from-layer="861" from-port="0" to-layer="901" to-port="4"/>
		<edge from-layer="902" from-port="0" to-layer="903" to-port="0"/>
		<edge from-layer="903" from-port="1" to-layer="905" to-port="0"/>
		<edge from-layer="904" from-port="0" to-layer="905" to-port="1"/>
		<edge from-layer="905" from-port="2" to-layer="907" to-port="0"/>
		<edge from-layer="906" from-port="0" to-layer="907" to-port="1"/>
		<edge from-layer="901" from-port="5" to-layer="908" to-port="0"/>
		<edge from-layer="907" from-port="2" to-layer="908" to-port="1"/>
		<edge from-layer="908" from-port="2" to-layer="910" to-port="0"/>
		<edge from-layer="909" from-port="0" to-layer="910" to-port="1"/>
		<edge from-layer="910" from-port="2" to-layer="911" to-port="0"/>
		<edge from-layer="854" from-port="0" to-layer="911" to-port="1"/>
		<edge from-layer="855" from-port="0" to-layer="911" to-port="2"/>
		<edge from-layer="856" from-port="0" to-layer="911" to-port="3"/>
		<edge from-layer="857" from-port="0" to-layer="911" to-port="4"/>
		<edge from-layer="911" from-port="5" to-layer="913" to-port="0"/>
		<edge from-layer="912" from-port="0" to-layer="913" to-port="1"/>
		<edge from-layer="853" from-port="5" to-layer="914" to-port="0"/>
		<edge from-layer="913" from-port="2" to-layer="914" to-port="1"/>
		<edge from-layer="914" from-port="2" to-layer="915" to-port="0"/>
		<edge from-layer="43" from-port="0" to-layer="915" to-port="1"/>
		<edge from-layer="44" from-port="0" to-layer="915" to-port="2"/>
		<edge from-layer="45" from-port="0" to-layer="915" to-port="3"/>
		<edge from-layer="46" from-port="0" to-layer="915" to-port="4"/>
		<edge from-layer="934" from-port="0" to-layer="935" to-port="0"/>
		<edge from-layer="935" from-port="1" to-layer="937" to-port="0"/>
		<edge from-layer="936" from-port="0" to-layer="937" to-port="1"/>
		<edge from-layer="937" from-port="2" to-layer="939" to-port="0"/>
		<edge from-layer="938" from-port="0" to-layer="939" to-port="1"/>
		<edge from-layer="939" from-port="2" to-layer="940" to-port="0"/>
		<edge from-layer="933" from-port="0" to-layer="940" to-port="1"/>
		<edge from-layer="915" from-port="5" to-layer="941" to-port="0"/>
		<edge from-layer="940" from-port="2" to-layer="941" to-port="1"/>
		<edge from-layer="941" from-port="2" to-layer="943" to-port="0"/>
		<edge from-layer="942" from-port="0" to-layer="943" to-port="1"/>
		<edge from-layer="943" from-port="2" to-layer="944" to-port="0"/>
		<edge from-layer="929" from-port="0" to-layer="944" to-port="1"/>
		<edge from-layer="930" from-port="0" to-layer="944" to-port="2"/>
		<edge from-layer="931" from-port="0" to-layer="944" to-port="3"/>
		<edge from-layer="932" from-port="0" to-layer="944" to-port="4"/>
		<edge from-layer="944" from-port="5" to-layer="946" to-port="0"/>
		<edge from-layer="945" from-port="0" to-layer="946" to-port="1"/>
		<edge from-layer="946" from-port="2" to-layer="947" to-port="0"/>
		<edge from-layer="928" from-port="0" to-layer="947" to-port="1"/>
		<edge from-layer="947" from-port="2" to-layer="949" to-port="0"/>
		<edge from-layer="948" from-port="0" to-layer="949" to-port="1"/>
		<edge from-layer="949" from-port="2" to-layer="951" to-port="0"/>
		<edge from-layer="950" from-port="0" to-layer="951" to-port="1"/>
		<edge from-layer="951" from-port="2" to-layer="952" to-port="0"/>
		<edge from-layer="924" from-port="0" to-layer="952" to-port="1"/>
		<edge from-layer="925" from-port="0" to-layer="952" to-port="2"/>
		<edge from-layer="926" from-port="0" to-layer="952" to-port="3"/>
		<edge from-layer="927" from-port="0" to-layer="952" to-port="4"/>
		<edge from-layer="953" from-port="0" to-layer="954" to-port="0"/>
		<edge from-layer="954" from-port="1" to-layer="956" to-port="0"/>
		<edge from-layer="955" from-port="0" to-layer="956" to-port="1"/>
		<edge from-layer="956" from-port="2" to-layer="958" to-port="0"/>
		<edge from-layer="957" from-port="0" to-layer="958" to-port="1"/>
		<edge from-layer="952" from-port="5" to-layer="959" to-port="0"/>
		<edge from-layer="958" from-port="2" to-layer="959" to-port="1"/>
		<edge from-layer="959" from-port="2" to-layer="961" to-port="0"/>
		<edge from-layer="960" from-port="0" to-layer="961" to-port="1"/>
		<edge from-layer="961" from-port="2" to-layer="962" to-port="0"/>
		<edge from-layer="962" from-port="1" to-layer="963" to-port="0"/>
		<edge from-layer="920" from-port="0" to-layer="963" to-port="1"/>
		<edge from-layer="921" from-port="0" to-layer="963" to-port="2"/>
		<edge from-layer="922" from-port="0" to-layer="963" to-port="3"/>
		<edge from-layer="923" from-port="0" to-layer="963" to-port="4"/>
		<edge from-layer="964" from-port="0" to-layer="965" to-port="0"/>
		<edge from-layer="965" from-port="1" to-layer="967" to-port="0"/>
		<edge from-layer="966" from-port="0" to-layer="967" to-port="1"/>
		<edge from-layer="967" from-port="2" to-layer="969" to-port="0"/>
		<edge from-layer="968" from-port="0" to-layer="969" to-port="1"/>
		<edge from-layer="963" from-port="5" to-layer="970" to-port="0"/>
		<edge from-layer="969" from-port="2" to-layer="970" to-port="1"/>
		<edge from-layer="970" from-port="2" to-layer="972" to-port="0"/>
		<edge from-layer="971" from-port="0" to-layer="972" to-port="1"/>
		<edge from-layer="972" from-port="2" to-layer="973" to-port="0"/>
		<edge from-layer="916" from-port="0" to-layer="973" to-port="1"/>
		<edge from-layer="917" from-port="0" to-layer="973" to-port="2"/>
		<edge from-layer="918" from-port="0" to-layer="973" to-port="3"/>
		<edge from-layer="919" from-port="0" to-layer="973" to-port="4"/>
		<edge from-layer="973" from-port="5" to-layer="975" to-port="0"/>
		<edge from-layer="974" from-port="0" to-layer="975" to-port="1"/>
		<edge from-layer="915" from-port="5" to-layer="976" to-port="0"/>
		<edge from-layer="975" from-port="2" to-layer="976" to-port="1"/>
		<edge from-layer="976" from-port="2" to-layer="977" to-port="0"/>
		<edge from-layer="39" from-port="0" to-layer="977" to-port="1"/>
		<edge from-layer="40" from-port="0" to-layer="977" to-port="2"/>
		<edge from-layer="41" from-port="0" to-layer="977" to-port="3"/>
		<edge from-layer="42" from-port="0" to-layer="977" to-port="4"/>
		<edge from-layer="996" from-port="0" to-layer="997" to-port="0"/>
		<edge from-layer="997" from-port="1" to-layer="999" to-port="0"/>
		<edge from-layer="998" from-port="0" to-layer="999" to-port="1"/>
		<edge from-layer="999" from-port="2" to-layer="1001" to-port="0"/>
		<edge from-layer="1000" from-port="0" to-layer="1001" to-port="1"/>
		<edge from-layer="1001" from-port="2" to-layer="1002" to-port="0"/>
		<edge from-layer="995" from-port="0" to-layer="1002" to-port="1"/>
		<edge from-layer="977" from-port="5" to-layer="1003" to-port="0"/>
		<edge from-layer="1002" from-port="2" to-layer="1003" to-port="1"/>
		<edge from-layer="1003" from-port="2" to-layer="1005" to-port="0"/>
		<edge from-layer="1004" from-port="0" to-layer="1005" to-port="1"/>
		<edge from-layer="1005" from-port="2" to-layer="1006" to-port="0"/>
		<edge from-layer="991" from-port="0" to-layer="1006" to-port="1"/>
		<edge from-layer="992" from-port="0" to-layer="1006" to-port="2"/>
		<edge from-layer="993" from-port="0" to-layer="1006" to-port="3"/>
		<edge from-layer="994" from-port="0" to-layer="1006" to-port="4"/>
		<edge from-layer="1006" from-port="5" to-layer="1008" to-port="0"/>
		<edge from-layer="1007" from-port="0" to-layer="1008" to-port="1"/>
		<edge from-layer="1008" from-port="2" to-layer="1009" to-port="0"/>
		<edge from-layer="990" from-port="0" to-layer="1009" to-port="1"/>
		<edge from-layer="1009" from-port="2" to-layer="1011" to-port="0"/>
		<edge from-layer="1010" from-port="0" to-layer="1011" to-port="1"/>
		<edge from-layer="1011" from-port="2" to-layer="1013" to-port="0"/>
		<edge from-layer="1012" from-port="0" to-layer="1013" to-port="1"/>
		<edge from-layer="1013" from-port="2" to-layer="1014" to-port="0"/>
		<edge from-layer="986" from-port="0" to-layer="1014" to-port="1"/>
		<edge from-layer="987" from-port="0" to-layer="1014" to-port="2"/>
		<edge from-layer="988" from-port="0" to-layer="1014" to-port="3"/>
		<edge from-layer="989" from-port="0" to-layer="1014" to-port="4"/>
		<edge from-layer="1015" from-port="0" to-layer="1016" to-port="0"/>
		<edge from-layer="1016" from-port="1" to-layer="1018" to-port="0"/>
		<edge from-layer="1017" from-port="0" to-layer="1018" to-port="1"/>
		<edge from-layer="1018" from-port="2" to-layer="1020" to-port="0"/>
		<edge from-layer="1019" from-port="0" to-layer="1020" to-port="1"/>
		<edge from-layer="1014" from-port="5" to-layer="1021" to-port="0"/>
		<edge from-layer="1020" from-port="2" to-layer="1021" to-port="1"/>
		<edge from-layer="1021" from-port="2" to-layer="1023" to-port="0"/>
		<edge from-layer="1022" from-port="0" to-layer="1023" to-port="1"/>
		<edge from-layer="1023" from-port="2" to-layer="1024" to-port="0"/>
		<edge from-layer="1024" from-port="1" to-layer="1025" to-port="0"/>
		<edge from-layer="982" from-port="0" to-layer="1025" to-port="1"/>
		<edge from-layer="983" from-port="0" to-layer="1025" to-port="2"/>
		<edge from-layer="984" from-port="0" to-layer="1025" to-port="3"/>
		<edge from-layer="985" from-port="0" to-layer="1025" to-port="4"/>
		<edge from-layer="1026" from-port="0" to-layer="1027" to-port="0"/>
		<edge from-layer="1027" from-port="1" to-layer="1029" to-port="0"/>
		<edge from-layer="1028" from-port="0" to-layer="1029" to-port="1"/>
		<edge from-layer="1029" from-port="2" to-layer="1031" to-port="0"/>
		<edge from-layer="1030" from-port="0" to-layer="1031" to-port="1"/>
		<edge from-layer="1025" from-port="5" to-layer="1032" to-port="0"/>
		<edge from-layer="1031" from-port="2" to-layer="1032" to-port="1"/>
		<edge from-layer="1032" from-port="2" to-layer="1034" to-port="0"/>
		<edge from-layer="1033" from-port="0" to-layer="1034" to-port="1"/>
		<edge from-layer="1034" from-port="2" to-layer="1035" to-port="0"/>
		<edge from-layer="978" from-port="0" to-layer="1035" to-port="1"/>
		<edge from-layer="979" from-port="0" to-layer="1035" to-port="2"/>
		<edge from-layer="980" from-port="0" to-layer="1035" to-port="3"/>
		<edge from-layer="981" from-port="0" to-layer="1035" to-port="4"/>
		<edge from-layer="1035" from-port="5" to-layer="1037" to-port="0"/>
		<edge from-layer="1036" from-port="0" to-layer="1037" to-port="1"/>
		<edge from-layer="977" from-port="5" to-layer="1038" to-port="0"/>
		<edge from-layer="1037" from-port="2" to-layer="1038" to-port="1"/>
		<edge from-layer="1038" from-port="2" to-layer="1039" to-port="0"/>
		<edge from-layer="35" from-port="0" to-layer="1039" to-port="1"/>
		<edge from-layer="36" from-port="0" to-layer="1039" to-port="2"/>
		<edge from-layer="37" from-port="0" to-layer="1039" to-port="3"/>
		<edge from-layer="38" from-port="0" to-layer="1039" to-port="4"/>
		<edge from-layer="1058" from-port="0" to-layer="1059" to-port="0"/>
		<edge from-layer="1059" from-port="1" to-layer="1061" to-port="0"/>
		<edge from-layer="1060" from-port="0" to-layer="1061" to-port="1"/>
		<edge from-layer="1061" from-port="2" to-layer="1063" to-port="0"/>
		<edge from-layer="1062" from-port="0" to-layer="1063" to-port="1"/>
		<edge from-layer="1063" from-port="2" to-layer="1064" to-port="0"/>
		<edge from-layer="1057" from-port="0" to-layer="1064" to-port="1"/>
		<edge from-layer="1039" from-port="5" to-layer="1065" to-port="0"/>
		<edge from-layer="1064" from-port="2" to-layer="1065" to-port="1"/>
		<edge from-layer="1065" from-port="2" to-layer="1067" to-port="0"/>
		<edge from-layer="1066" from-port="0" to-layer="1067" to-port="1"/>
		<edge from-layer="1067" from-port="2" to-layer="1068" to-port="0"/>
		<edge from-layer="1053" from-port="0" to-layer="1068" to-port="1"/>
		<edge from-layer="1054" from-port="0" to-layer="1068" to-port="2"/>
		<edge from-layer="1055" from-port="0" to-layer="1068" to-port="3"/>
		<edge from-layer="1056" from-port="0" to-layer="1068" to-port="4"/>
		<edge from-layer="1068" from-port="5" to-layer="1070" to-port="0"/>
		<edge from-layer="1069" from-port="0" to-layer="1070" to-port="1"/>
		<edge from-layer="1070" from-port="2" to-layer="1071" to-port="0"/>
		<edge from-layer="1052" from-port="0" to-layer="1071" to-port="1"/>
		<edge from-layer="1071" from-port="2" to-layer="1073" to-port="0"/>
		<edge from-layer="1072" from-port="0" to-layer="1073" to-port="1"/>
		<edge from-layer="1073" from-port="2" to-layer="1075" to-port="0"/>
		<edge from-layer="1074" from-port="0" to-layer="1075" to-port="1"/>
		<edge from-layer="1075" from-port="2" to-layer="1076" to-port="0"/>
		<edge from-layer="1048" from-port="0" to-layer="1076" to-port="1"/>
		<edge from-layer="1049" from-port="0" to-layer="1076" to-port="2"/>
		<edge from-layer="1050" from-port="0" to-layer="1076" to-port="3"/>
		<edge from-layer="1051" from-port="0" to-layer="1076" to-port="4"/>
		<edge from-layer="1077" from-port="0" to-layer="1078" to-port="0"/>
		<edge from-layer="1078" from-port="1" to-layer="1080" to-port="0"/>
		<edge from-layer="1079" from-port="0" to-layer="1080" to-port="1"/>
		<edge from-layer="1080" from-port="2" to-layer="1082" to-port="0"/>
		<edge from-layer="1081" from-port="0" to-layer="1082" to-port="1"/>
		<edge from-layer="1076" from-port="5" to-layer="1083" to-port="0"/>
		<edge from-layer="1082" from-port="2" to-layer="1083" to-port="1"/>
		<edge from-layer="1083" from-port="2" to-layer="1085" to-port="0"/>
		<edge from-layer="1084" from-port="0" to-layer="1085" to-port="1"/>
		<edge from-layer="1085" from-port="2" to-layer="1086" to-port="0"/>
		<edge from-layer="1086" from-port="1" to-layer="1087" to-port="0"/>
		<edge from-layer="1044" from-port="0" to-layer="1087" to-port="1"/>
		<edge from-layer="1045" from-port="0" to-layer="1087" to-port="2"/>
		<edge from-layer="1046" from-port="0" to-layer="1087" to-port="3"/>
		<edge from-layer="1047" from-port="0" to-layer="1087" to-port="4"/>
		<edge from-layer="1088" from-port="0" to-layer="1089" to-port="0"/>
		<edge from-layer="1089" from-port="1" to-layer="1091" to-port="0"/>
		<edge from-layer="1090" from-port="0" to-layer="1091" to-port="1"/>
		<edge from-layer="1091" from-port="2" to-layer="1093" to-port="0"/>
		<edge from-layer="1092" from-port="0" to-layer="1093" to-port="1"/>
		<edge from-layer="1087" from-port="5" to-layer="1094" to-port="0"/>
		<edge from-layer="1093" from-port="2" to-layer="1094" to-port="1"/>
		<edge from-layer="1094" from-port="2" to-layer="1096" to-port="0"/>
		<edge from-layer="1095" from-port="0" to-layer="1096" to-port="1"/>
		<edge from-layer="1096" from-port="2" to-layer="1097" to-port="0"/>
		<edge from-layer="1040" from-port="0" to-layer="1097" to-port="1"/>
		<edge from-layer="1041" from-port="0" to-layer="1097" to-port="2"/>
		<edge from-layer="1042" from-port="0" to-layer="1097" to-port="3"/>
		<edge from-layer="1043" from-port="0" to-layer="1097" to-port="4"/>
		<edge from-layer="1097" from-port="5" to-layer="1099" to-port="0"/>
		<edge from-layer="1098" from-port="0" to-layer="1099" to-port="1"/>
		<edge from-layer="1039" from-port="5" to-layer="1100" to-port="0"/>
		<edge from-layer="1099" from-port="2" to-layer="1100" to-port="1"/>
		<edge from-layer="1100" from-port="2" to-layer="1101" to-port="0"/>
		<edge from-layer="31" from-port="0" to-layer="1101" to-port="1"/>
		<edge from-layer="32" from-port="0" to-layer="1101" to-port="2"/>
		<edge from-layer="33" from-port="0" to-layer="1101" to-port="3"/>
		<edge from-layer="34" from-port="0" to-layer="1101" to-port="4"/>
		<edge from-layer="1101" from-port="5" to-layer="1102" to-port="0"/>
		<edge from-layer="30" from-port="0" to-layer="1102" to-port="1"/>
		<edge from-layer="29" from-port="0" to-layer="1103" to-port="0"/>
		<edge from-layer="1102" from-port="2" to-layer="1103" to-port="1"/>
		<edge from-layer="1103" from-port="2" to-layer="1105" to-port="0"/>
		<edge from-layer="1104" from-port="0" to-layer="1105" to-port="1"/>
		<edge from-layer="1105" from-port="2" to-layer="1106" to-port="0"/>
		<edge from-layer="25" from-port="0" to-layer="1106" to-port="1"/>
		<edge from-layer="26" from-port="0" to-layer="1106" to-port="2"/>
		<edge from-layer="27" from-port="0" to-layer="1106" to-port="3"/>
		<edge from-layer="28" from-port="0" to-layer="1106" to-port="4"/>
		<edge from-layer="1107" from-port="0" to-layer="1108" to-port="0"/>
		<edge from-layer="1108" from-port="1" to-layer="1110" to-port="0"/>
		<edge from-layer="1109" from-port="0" to-layer="1110" to-port="1"/>
		<edge from-layer="1110" from-port="2" to-layer="1112" to-port="0"/>
		<edge from-layer="1111" from-port="0" to-layer="1112" to-port="1"/>
		<edge from-layer="1106" from-port="5" to-layer="1113" to-port="0"/>
		<edge from-layer="1112" from-port="2" to-layer="1113" to-port="1"/>
		<edge from-layer="1113" from-port="2" to-layer="1115" to-port="0"/>
		<edge from-layer="1114" from-port="0" to-layer="1115" to-port="1"/>
		<edge from-layer="1115" from-port="2" to-layer="1116" to-port="0"/>
		<edge from-layer="21" from-port="0" to-layer="1116" to-port="1"/>
		<edge from-layer="22" from-port="0" to-layer="1116" to-port="2"/>
		<edge from-layer="23" from-port="0" to-layer="1116" to-port="3"/>
		<edge from-layer="24" from-port="0" to-layer="1116" to-port="4"/>
		<edge from-layer="1135" from-port="0" to-layer="1136" to-port="0"/>
		<edge from-layer="1136" from-port="1" to-layer="1138" to-port="0"/>
		<edge from-layer="1137" from-port="0" to-layer="1138" to-port="1"/>
		<edge from-layer="1138" from-port="2" to-layer="1140" to-port="0"/>
		<edge from-layer="1139" from-port="0" to-layer="1140" to-port="1"/>
		<edge from-layer="1140" from-port="2" to-layer="1141" to-port="0"/>
		<edge from-layer="1134" from-port="0" to-layer="1141" to-port="1"/>
		<edge from-layer="1116" from-port="5" to-layer="1142" to-port="0"/>
		<edge from-layer="1141" from-port="2" to-layer="1142" to-port="1"/>
		<edge from-layer="1142" from-port="2" to-layer="1144" to-port="0"/>
		<edge from-layer="1143" from-port="0" to-layer="1144" to-port="1"/>
		<edge from-layer="1144" from-port="2" to-layer="1145" to-port="0"/>
		<edge from-layer="1130" from-port="0" to-layer="1145" to-port="1"/>
		<edge from-layer="1131" from-port="0" to-layer="1145" to-port="2"/>
		<edge from-layer="1132" from-port="0" to-layer="1145" to-port="3"/>
		<edge from-layer="1133" from-port="0" to-layer="1145" to-port="4"/>
		<edge from-layer="1145" from-port="5" to-layer="1147" to-port="0"/>
		<edge from-layer="1146" from-port="0" to-layer="1147" to-port="1"/>
		<edge from-layer="1147" from-port="2" to-layer="1148" to-port="0"/>
		<edge from-layer="1129" from-port="0" to-layer="1148" to-port="1"/>
		<edge from-layer="1148" from-port="2" to-layer="1150" to-port="0"/>
		<edge from-layer="1149" from-port="0" to-layer="1150" to-port="1"/>
		<edge from-layer="1150" from-port="2" to-layer="1152" to-port="0"/>
		<edge from-layer="1151" from-port="0" to-layer="1152" to-port="1"/>
		<edge from-layer="1152" from-port="2" to-layer="1153" to-port="0"/>
		<edge from-layer="1125" from-port="0" to-layer="1153" to-port="1"/>
		<edge from-layer="1126" from-port="0" to-layer="1153" to-port="2"/>
		<edge from-layer="1127" from-port="0" to-layer="1153" to-port="3"/>
		<edge from-layer="1128" from-port="0" to-layer="1153" to-port="4"/>
		<edge from-layer="1154" from-port="0" to-layer="1155" to-port="0"/>
		<edge from-layer="1155" from-port="1" to-layer="1157" to-port="0"/>
		<edge from-layer="1156" from-port="0" to-layer="1157" to-port="1"/>
		<edge from-layer="1157" from-port="2" to-layer="1159" to-port="0"/>
		<edge from-layer="1158" from-port="0" to-layer="1159" to-port="1"/>
		<edge from-layer="1153" from-port="5" to-layer="1160" to-port="0"/>
		<edge from-layer="1159" from-port="2" to-layer="1160" to-port="1"/>
		<edge from-layer="1160" from-port="2" to-layer="1162" to-port="0"/>
		<edge from-layer="1161" from-port="0" to-layer="1162" to-port="1"/>
		<edge from-layer="1162" from-port="2" to-layer="1163" to-port="0"/>
		<edge from-layer="1163" from-port="1" to-layer="1164" to-port="0"/>
		<edge from-layer="1121" from-port="0" to-layer="1164" to-port="1"/>
		<edge from-layer="1122" from-port="0" to-layer="1164" to-port="2"/>
		<edge from-layer="1123" from-port="0" to-layer="1164" to-port="3"/>
		<edge from-layer="1124" from-port="0" to-layer="1164" to-port="4"/>
		<edge from-layer="1165" from-port="0" to-layer="1166" to-port="0"/>
		<edge from-layer="1166" from-port="1" to-layer="1168" to-port="0"/>
		<edge from-layer="1167" from-port="0" to-layer="1168" to-port="1"/>
		<edge from-layer="1168" from-port="2" to-layer="1170" to-port="0"/>
		<edge from-layer="1169" from-port="0" to-layer="1170" to-port="1"/>
		<edge from-layer="1164" from-port="5" to-layer="1171" to-port="0"/>
		<edge from-layer="1170" from-port="2" to-layer="1171" to-port="1"/>
		<edge from-layer="1171" from-port="2" to-layer="1173" to-port="0"/>
		<edge from-layer="1172" from-port="0" to-layer="1173" to-port="1"/>
		<edge from-layer="1173" from-port="2" to-layer="1174" to-port="0"/>
		<edge from-layer="1117" from-port="0" to-layer="1174" to-port="1"/>
		<edge from-layer="1118" from-port="0" to-layer="1174" to-port="2"/>
		<edge from-layer="1119" from-port="0" to-layer="1174" to-port="3"/>
		<edge from-layer="1120" from-port="0" to-layer="1174" to-port="4"/>
		<edge from-layer="1174" from-port="5" to-layer="1176" to-port="0"/>
		<edge from-layer="1175" from-port="0" to-layer="1176" to-port="1"/>
		<edge from-layer="1116" from-port="5" to-layer="1177" to-port="0"/>
		<edge from-layer="1176" from-port="2" to-layer="1177" to-port="1"/>
		<edge from-layer="1177" from-port="2" to-layer="1178" to-port="0"/>
		<edge from-layer="17" from-port="0" to-layer="1178" to-port="1"/>
		<edge from-layer="18" from-port="0" to-layer="1178" to-port="2"/>
		<edge from-layer="19" from-port="0" to-layer="1178" to-port="3"/>
		<edge from-layer="20" from-port="0" to-layer="1178" to-port="4"/>
		<edge from-layer="1197" from-port="0" to-layer="1198" to-port="0"/>
		<edge from-layer="1198" from-port="1" to-layer="1200" to-port="0"/>
		<edge from-layer="1199" from-port="0" to-layer="1200" to-port="1"/>
		<edge from-layer="1200" from-port="2" to-layer="1202" to-port="0"/>
		<edge from-layer="1201" from-port="0" to-layer="1202" to-port="1"/>
		<edge from-layer="1202" from-port="2" to-layer="1203" to-port="0"/>
		<edge from-layer="1196" from-port="0" to-layer="1203" to-port="1"/>
		<edge from-layer="1178" from-port="5" to-layer="1204" to-port="0"/>
		<edge from-layer="1203" from-port="2" to-layer="1204" to-port="1"/>
		<edge from-layer="1204" from-port="2" to-layer="1206" to-port="0"/>
		<edge from-layer="1205" from-port="0" to-layer="1206" to-port="1"/>
		<edge from-layer="1206" from-port="2" to-layer="1207" to-port="0"/>
		<edge from-layer="1192" from-port="0" to-layer="1207" to-port="1"/>
		<edge from-layer="1193" from-port="0" to-layer="1207" to-port="2"/>
		<edge from-layer="1194" from-port="0" to-layer="1207" to-port="3"/>
		<edge from-layer="1195" from-port="0" to-layer="1207" to-port="4"/>
		<edge from-layer="1207" from-port="5" to-layer="1209" to-port="0"/>
		<edge from-layer="1208" from-port="0" to-layer="1209" to-port="1"/>
		<edge from-layer="1209" from-port="2" to-layer="1210" to-port="0"/>
		<edge from-layer="1191" from-port="0" to-layer="1210" to-port="1"/>
		<edge from-layer="1210" from-port="2" to-layer="1212" to-port="0"/>
		<edge from-layer="1211" from-port="0" to-layer="1212" to-port="1"/>
		<edge from-layer="1212" from-port="2" to-layer="1214" to-port="0"/>
		<edge from-layer="1213" from-port="0" to-layer="1214" to-port="1"/>
		<edge from-layer="1214" from-port="2" to-layer="1215" to-port="0"/>
		<edge from-layer="1187" from-port="0" to-layer="1215" to-port="1"/>
		<edge from-layer="1188" from-port="0" to-layer="1215" to-port="2"/>
		<edge from-layer="1189" from-port="0" to-layer="1215" to-port="3"/>
		<edge from-layer="1190" from-port="0" to-layer="1215" to-port="4"/>
		<edge from-layer="1216" from-port="0" to-layer="1217" to-port="0"/>
		<edge from-layer="1217" from-port="1" to-layer="1219" to-port="0"/>
		<edge from-layer="1218" from-port="0" to-layer="1219" to-port="1"/>
		<edge from-layer="1219" from-port="2" to-layer="1221" to-port="0"/>
		<edge from-layer="1220" from-port="0" to-layer="1221" to-port="1"/>
		<edge from-layer="1215" from-port="5" to-layer="1222" to-port="0"/>
		<edge from-layer="1221" from-port="2" to-layer="1222" to-port="1"/>
		<edge from-layer="1222" from-port="2" to-layer="1224" to-port="0"/>
		<edge from-layer="1223" from-port="0" to-layer="1224" to-port="1"/>
		<edge from-layer="1224" from-port="2" to-layer="1225" to-port="0"/>
		<edge from-layer="1225" from-port="1" to-layer="1226" to-port="0"/>
		<edge from-layer="1183" from-port="0" to-layer="1226" to-port="1"/>
		<edge from-layer="1184" from-port="0" to-layer="1226" to-port="2"/>
		<edge from-layer="1185" from-port="0" to-layer="1226" to-port="3"/>
		<edge from-layer="1186" from-port="0" to-layer="1226" to-port="4"/>
		<edge from-layer="1227" from-port="0" to-layer="1228" to-port="0"/>
		<edge from-layer="1228" from-port="1" to-layer="1230" to-port="0"/>
		<edge from-layer="1229" from-port="0" to-layer="1230" to-port="1"/>
		<edge from-layer="1230" from-port="2" to-layer="1232" to-port="0"/>
		<edge from-layer="1231" from-port="0" to-layer="1232" to-port="1"/>
		<edge from-layer="1226" from-port="5" to-layer="1233" to-port="0"/>
		<edge from-layer="1232" from-port="2" to-layer="1233" to-port="1"/>
		<edge from-layer="1233" from-port="2" to-layer="1235" to-port="0"/>
		<edge from-layer="1234" from-port="0" to-layer="1235" to-port="1"/>
		<edge from-layer="1235" from-port="2" to-layer="1236" to-port="0"/>
		<edge from-layer="1179" from-port="0" to-layer="1236" to-port="1"/>
		<edge from-layer="1180" from-port="0" to-layer="1236" to-port="2"/>
		<edge from-layer="1181" from-port="0" to-layer="1236" to-port="3"/>
		<edge from-layer="1182" from-port="0" to-layer="1236" to-port="4"/>
		<edge from-layer="1236" from-port="5" to-layer="1238" to-port="0"/>
		<edge from-layer="1237" from-port="0" to-layer="1238" to-port="1"/>
		<edge from-layer="1178" from-port="5" to-layer="1239" to-port="0"/>
		<edge from-layer="1238" from-port="2" to-layer="1239" to-port="1"/>
		<edge from-layer="1239" from-port="2" to-layer="1240" to-port="0"/>
		<edge from-layer="13" from-port="0" to-layer="1240" to-port="1"/>
		<edge from-layer="14" from-port="0" to-layer="1240" to-port="2"/>
		<edge from-layer="15" from-port="0" to-layer="1240" to-port="3"/>
		<edge from-layer="16" from-port="0" to-layer="1240" to-port="4"/>
		<edge from-layer="1259" from-port="0" to-layer="1260" to-port="0"/>
		<edge from-layer="1260" from-port="1" to-layer="1262" to-port="0"/>
		<edge from-layer="1261" from-port="0" to-layer="1262" to-port="1"/>
		<edge from-layer="1262" from-port="2" to-layer="1264" to-port="0"/>
		<edge from-layer="1263" from-port="0" to-layer="1264" to-port="1"/>
		<edge from-layer="1264" from-port="2" to-layer="1265" to-port="0"/>
		<edge from-layer="1258" from-port="0" to-layer="1265" to-port="1"/>
		<edge from-layer="1240" from-port="5" to-layer="1266" to-port="0"/>
		<edge from-layer="1265" from-port="2" to-layer="1266" to-port="1"/>
		<edge from-layer="1266" from-port="2" to-layer="1268" to-port="0"/>
		<edge from-layer="1267" from-port="0" to-layer="1268" to-port="1"/>
		<edge from-layer="1268" from-port="2" to-layer="1269" to-port="0"/>
		<edge from-layer="1254" from-port="0" to-layer="1269" to-port="1"/>
		<edge from-layer="1255" from-port="0" to-layer="1269" to-port="2"/>
		<edge from-layer="1256" from-port="0" to-layer="1269" to-port="3"/>
		<edge from-layer="1257" from-port="0" to-layer="1269" to-port="4"/>
		<edge from-layer="1269" from-port="5" to-layer="1271" to-port="0"/>
		<edge from-layer="1270" from-port="0" to-layer="1271" to-port="1"/>
		<edge from-layer="1271" from-port="2" to-layer="1272" to-port="0"/>
		<edge from-layer="1253" from-port="0" to-layer="1272" to-port="1"/>
		<edge from-layer="1272" from-port="2" to-layer="1274" to-port="0"/>
		<edge from-layer="1273" from-port="0" to-layer="1274" to-port="1"/>
		<edge from-layer="1274" from-port="2" to-layer="1276" to-port="0"/>
		<edge from-layer="1275" from-port="0" to-layer="1276" to-port="1"/>
		<edge from-layer="1276" from-port="2" to-layer="1277" to-port="0"/>
		<edge from-layer="1249" from-port="0" to-layer="1277" to-port="1"/>
		<edge from-layer="1250" from-port="0" to-layer="1277" to-port="2"/>
		<edge from-layer="1251" from-port="0" to-layer="1277" to-port="3"/>
		<edge from-layer="1252" from-port="0" to-layer="1277" to-port="4"/>
		<edge from-layer="1278" from-port="0" to-layer="1279" to-port="0"/>
		<edge from-layer="1279" from-port="1" to-layer="1281" to-port="0"/>
		<edge from-layer="1280" from-port="0" to-layer="1281" to-port="1"/>
		<edge from-layer="1281" from-port="2" to-layer="1283" to-port="0"/>
		<edge from-layer="1282" from-port="0" to-layer="1283" to-port="1"/>
		<edge from-layer="1277" from-port="5" to-layer="1284" to-port="0"/>
		<edge from-layer="1283" from-port="2" to-layer="1284" to-port="1"/>
		<edge from-layer="1284" from-port="2" to-layer="1286" to-port="0"/>
		<edge from-layer="1285" from-port="0" to-layer="1286" to-port="1"/>
		<edge from-layer="1286" from-port="2" to-layer="1287" to-port="0"/>
		<edge from-layer="1287" from-port="1" to-layer="1288" to-port="0"/>
		<edge from-layer="1245" from-port="0" to-layer="1288" to-port="1"/>
		<edge from-layer="1246" from-port="0" to-layer="1288" to-port="2"/>
		<edge from-layer="1247" from-port="0" to-layer="1288" to-port="3"/>
		<edge from-layer="1248" from-port="0" to-layer="1288" to-port="4"/>
		<edge from-layer="1289" from-port="0" to-layer="1290" to-port="0"/>
		<edge from-layer="1290" from-port="1" to-layer="1292" to-port="0"/>
		<edge from-layer="1291" from-port="0" to-layer="1292" to-port="1"/>
		<edge from-layer="1292" from-port="2" to-layer="1294" to-port="0"/>
		<edge from-layer="1293" from-port="0" to-layer="1294" to-port="1"/>
		<edge from-layer="1288" from-port="5" to-layer="1295" to-port="0"/>
		<edge from-layer="1294" from-port="2" to-layer="1295" to-port="1"/>
		<edge from-layer="1295" from-port="2" to-layer="1297" to-port="0"/>
		<edge from-layer="1296" from-port="0" to-layer="1297" to-port="1"/>
		<edge from-layer="1297" from-port="2" to-layer="1298" to-port="0"/>
		<edge from-layer="1241" from-port="0" to-layer="1298" to-port="1"/>
		<edge from-layer="1242" from-port="0" to-layer="1298" to-port="2"/>
		<edge from-layer="1243" from-port="0" to-layer="1298" to-port="3"/>
		<edge from-layer="1244" from-port="0" to-layer="1298" to-port="4"/>
		<edge from-layer="1298" from-port="5" to-layer="1300" to-port="0"/>
		<edge from-layer="1299" from-port="0" to-layer="1300" to-port="1"/>
		<edge from-layer="1240" from-port="5" to-layer="1301" to-port="0"/>
		<edge from-layer="1300" from-port="2" to-layer="1301" to-port="1"/>
		<edge from-layer="1301" from-port="2" to-layer="1302" to-port="0"/>
		<edge from-layer="9" from-port="0" to-layer="1302" to-port="1"/>
		<edge from-layer="10" from-port="0" to-layer="1302" to-port="2"/>
		<edge from-layer="11" from-port="0" to-layer="1302" to-port="3"/>
		<edge from-layer="12" from-port="0" to-layer="1302" to-port="4"/>
		<edge from-layer="1302" from-port="5" to-layer="1304" to-port="0"/>
		<edge from-layer="1303" from-port="0" to-layer="1304" to-port="1"/>
		<edge from-layer="1304" from-port="2" to-layer="1305" to-port="0"/>
		<edge from-layer="5" from-port="0" to-layer="1305" to-port="1"/>
		<edge from-layer="6" from-port="0" to-layer="1305" to-port="2"/>
		<edge from-layer="7" from-port="0" to-layer="1305" to-port="3"/>
		<edge from-layer="8" from-port="0" to-layer="1305" to-port="4"/>
		<edge from-layer="1305" from-port="5" to-layer="1306" to-port="0"/>
		<edge from-layer="4" from-port="0" to-layer="1306" to-port="1"/>
		<edge from-layer="1306" from-port="2" to-layer="1308" to-port="0"/>
		<edge from-layer="1307" from-port="0" to-layer="1308" to-port="1"/>
		<edge from-layer="1308" from-port="2" to-layer="1310" to-port="0"/>
		<edge from-layer="1309" from-port="0" to-layer="1310" to-port="1"/>
		<edge from-layer="1310" from-port="2" to-layer="1311" to-port="0"/>
		<edge from-layer="0" from-port="0" to-layer="1311" to-port="1"/>
		<edge from-layer="1" from-port="0" to-layer="1311" to-port="2"/>
		<edge from-layer="2" from-port="0" to-layer="1311" to-port="3"/>
		<edge from-layer="3" from-port="0" to-layer="1311" to-port="4"/>
		<edge from-layer="1312" from-port="0" to-layer="1313" to-port="0"/>
		<edge from-layer="1313" from-port="1" to-layer="1315" to-port="0"/>
		<edge from-layer="1314" from-port="0" to-layer="1315" to-port="1"/>
		<edge from-layer="1315" from-port="2" to-layer="1317" to-port="0"/>
		<edge from-layer="1316" from-port="0" to-layer="1317" to-port="1"/>
		<edge from-layer="1311" from-port="5" to-layer="1318" to-port="0"/>
		<edge from-layer="1317" from-port="2" to-layer="1318" to-port="1"/>
		<edge from-layer="1318" from-port="2" to-layer="1320" to-port="0"/>
		<edge from-layer="1319" from-port="0" to-layer="1320" to-port="1"/>
		<edge from-layer="1320" from-port="2" to-layer="1321" to-port="0"/>
	</edges>
	<meta_data>
		<MO_version value="2022.2.0-7713-af16ea1d79a-releases/2022/2"/>
		<Runtime_version value="2022.2.0-7713-af16ea1d79a-releases/2022/2"/>
		<legacy_path value="True"/>
		<cli_parameters>
			<caffe_parser_path value="DIR"/>
			<compress_fp16 value="False"/>
			<data_type value="FP32"/>
			<disable_nhwc_to_nchw value="False"/>
			<disable_omitting_optional value="False"/>
			<disable_resnet_optimization value="False"/>
			<disable_weights_compression value="False"/>
			<enable_concat_optimization value="False"/>
			<enable_flattening_nested_params value="False"/>
			<enable_ssd_gluoncv value="False"/>
			<extensions value="DIR"/>
			<framework value="onnx"/>
			<freeze_placeholder_with_value value="{}"/>
			<input_model value="DIR\best.onnx"/>
			<input_model_is_text value="False"/>
			<input_shape value="[1,1,224,224]"/>
			<k value="DIR\CustomLayersMapping.xml"/>
			<layout value="()"/>
			<layout_values value="{}"/>
			<legacy_mxnet_model value="False"/>
			<log_level value="ERROR"/>
			<mean_scale_values value="{}"/>
			<mean_values value="()"/>
			<model_name value="best"/>
			<output_dir value="DIR"/>
			<placeholder_data_types value="{}"/>
			<placeholder_shapes value="(1, 1, 224, 224)"/>
			<progress value="False"/>
			<remove_memory value="False"/>
			<remove_output_softmax value="False"/>
			<reverse_input_channels value="False"/>
			<save_params_from_nd value="False"/>
			<scale_values value="()"/>
			<silent value="False"/>
			<source_layout value="()"/>
			<static_shape value="False"/>
			<stream_output value="False"/>
			<target_layout value="()"/>
			<transform value=""/>
			<use_legacy_frontend value="False"/>
			<use_new_frontend value="False"/>
			<unset unset_cli_parameters="batch, counts, disable_fusing, finegrain_fusing, input, input_checkpoint, input_meta_graph, input_proto, input_symbol, mean_file, mean_file_offsets, nd_prefix_name, output, pretrained_model_name, saved_model_dir, saved_model_tags, scale, tensorboard_logdir, tensorflow_custom_layer_libraries, tensorflow_custom_operations_config_update, tensorflow_object_detection_api_pipeline_config, tensorflow_use_custom_operations_config, transformations_config"/>
		</cli_parameters>
	</meta_data>
	<quantization_parameters>
		<config/>
		<version value="{}"/>
		<cli_params value="{}"/>
	</quantization_parameters>
</net>
